hw7/RL/cartpole_dqn/9999.pth (torch_old, 16782 bytes, 16 tensors)

fc1.weight f4 [128, 4]
-0.37723002 -0.32330427 -0.7431452 -0.10727171 -0.17054117 0.16004808 -0.00931753 -0.0363891
-0.30047354 -0.015349704 -0.16925639 0.14710158 -0.13107006 -0.42473328 -0.3925461 -0.23366614
-0.4320869 0.18328476 0.037672468 0.046714816 -0.27241045 -0.13197292 -0.027575923 -0.14113481
0.67864734 -0.32817078 -0.82982856 0.15821561 0.16397804 -0.25072044 -1.0836052 0.032245416
0.39444828 -0.17063457 -0.15590042 -0.4462056 -0.23571934 -0.45686734 0.029878834 -0.2955258
-0.67658263 0.46605054 0.76995414 0.01839984 -0.33366564 -0.4626427 -0.051275786 -0.2592285
-0.5050224 0.22468644 2.4666405 0.50546104 0.623648 -0.10572348 -1.1862394 0.27504027
0.36076632 0.034063358 1.479598 0.62042654 -0.1568958 0.21101618 2.4761577 0.6658699
-0.17759892 0.32432482 1.10061 -0.1384312 -0.09648001 -0.27473536 -0.29949635 0.05592263
0.71262294 -0.52159995 -0.51805663 0.08623651 -0.07081813 0.1425835 -0.36313936 0.27886122
0.36986688 0.31452537 -0.59667754 -0.021932334 -0.01873649 0.30362064 0.669223 -0.25687617
0.19794734 -0.29041356 -0.933242 0.041346088 -0.31137815 0.05982603 0.32396603 -0.37793756
0.057648305 0.31298634 -0.41453573 0.07283284 0.08074636 -0.11524618 -2.048471 -0.26580015
0.50157964 0.2995452 -0.65883225 -0.24158913 -0.5328955 0.26489583 0.31743103 -0.38549793
0.68255556 -0.2413741 -0.8356231 0.1890726 -0.8321533 0.44273427 1.6890851 0.6662649
-0.36364645 -0.67254055 -0.55718637 -0.53234684 0.08458758 -0.1831446 -1.3475711 -0.40247047
-0.10882299 0.30427393 -0.6554305 0.36622894 -0.5447896 0.139537 -0.5650617 -0.100322515
-0.11688331 0.4963276 -0.2164506 -0.35306308 0.47834602 0.10895503 -0.41939184 0.20863375
0.2194161 -0.4064491 -1.0058643 0.24109824 -0.5881376 -0.33460942 2.0220811 0.14051533
-0.36639908 0.061889384 -0.2139094 -0.55108744 -0.14140134 -0.17258 -1.3335943 -0.51507455
0.0044737007 0.18736973 -1.7465291 -0.3258967 -0.5598566 0.29801783 0.8637804 -0.008666923
-0.19131751 0.090125255 -1.8470439 -0.36039105 0.3926224 0.089460455 -0.77606916 0.22634237
-0.7371879 0.22363622 1.8541898 0.5510022 -0.1548399 0.24275891 0.90518016 -0.10564696
0.57604116 -0.47951624 -1.727739 -0.19479418 0.19623616 0.045328904 -0.144377 -0.34186497
-0.16358334 0.09535134 -0.34052545 0.04912877 -0.05157287 -0.40755463 -0.18548767 0.27402723
-0.48481178 0.22613338 -0.31178248 0.017013252 -1.0142981 0.042066712 1.7972791 0.42948478
0.09250761 0.28409374 -0.24608466 0.32285288 0.05132077 0.17312188 1.124166 -0.17570183
-0.2839016 -0.06540776 -0.47141337 -0.017845191 0.09240962 0.1669772 -0.5388589 0.07827301
0.10933182 -0.18744062 0.20660138 -0.16902141 -0.07726094 0.28529358 -0.27685097 0.2653083
0.7764908 -0.51476717 -1.488072 -0.17849588 -0.64623684 -0.10461356 0.4852094 -0.1384832
0.21429726 0.16961297 -0.14671639 0.21266983 0.0732278 -0.25815606 0.055950835 -0.28307176
0.48459837 0.2946003 -0.44636947 -0.27158096 0.29534933 0.39108774 0.7033662 0.43997443
00000000: 4b24 c1be 2388 a5be c43e 3ebf 45b1 dbbd
00000010: 58a2 2ebe a5e3 233e 8ea8 18bc bd0c 15bd
00000020: abd7 99be 537d 7bbc 8c51 2dbe cca1 163e
00000030: 3b37 06be a476 d9be cdfb c8be 2d46 6fbe
00000040: 7f3a ddbe 00af 3b3e 724e 1a3d 0958 3f3d
00000050: 6279 8bbe e923 07be e7e6 e1bc a585 10be
00000060: d5bb 2d3f 0006 a8be a56f 54bf 4603 223e
00000070: dce9 273e 6e5e 80be 93b3 8abf c513 043d
00000080: 20f5 c93e d4ba 2ebe 5ca4 1fbe 0f75 e4be
00000090: 6960 71be 84ea e9be 75c4 f43c 284f 97be
000000a0: 8534 2dbf 2d9e ee3e b71b 453f 43bb 963c
000000b0: 39d6 aabe 81df ecbe 8f06 52bd 99b9 84be
000000c0: 2649 01bf 3414 663e 70dd 1d40 e565 013f
000000d0: 65a7 1f3f 8d85 d8bd b1d6 97bf 14d2 8c3e
000000e0: 5db6 b83e 0586 0b3d 7863 bd3f 46d4 1e3f
000000f0: 4ba9 20be a014 583e 5e79 1e40 7376 2a3f
00000100: 7edc 35be e70d a63e cae0 8c3f e9c0 0dbe
00000110: 5097 c5bd 1daa 8cbe 9657 99be 210f 653d
00000120: 756e 363f 9387 05bf 5c9f 04bf c49c b03d
00000130: 1909 91bd 6901 123e 67ed b9be e6c6 8e3e
00000140: 315f bd3e 7809 a13e dcbf 18bf 70ab b3bc
00000150: 447d 99bc 2a74 9b3e 3352 2b3f 4685 83be
00000160: b5b2 4a3e 16b1 94be f3e8 6ebf 845a 293d
00000170: f56c 9fbe 240c 753d e0de a53e 0881 c1be
00000180: a120 6c3d bf3f a03e 073e d4be 6229 953d
00000190: 595e a53d 3006 ecbd 261a 03c0 f516 88be
000001a0: 8667 003f fd5d 993e 3ba9 28bf 2463 77be
000001b0: d76b 08bf 6da0 873e 5286 a23e fc5f c5be
000001c0: f6bb 2e3f c62a 77be 65eb 55bf 3f9c 413e
000001d0: 0008 55bf 11ae e23e f133 d83f 5690 2a3f
000001e0: de2f babe 9e2b 2cbf c4a3 0ebf e247 08bf
000001f0: 413c ad3d 428a 3bbe 367d acbf 9c10 cebe
00000200: 96de debd cbc9 9b3e 4bca 27bf 5c82 bb3e
00000210: 5577 0bbf cae2 0e3e e2a7 10bf e475 cdbd
00000220: 8460 efbd a71e fe3e 3aa5 5dbe afc4 b4be
00000230: c5e9 f43e d123 df3d 87ba d6be 16a4 553e
00000240: 9dae 603e 191a d0be 29c0 80bf 75e2 763e
00000250: 3090 16bf ed51 abbe c769 0140 40e3 0f3e
00000260: a998 bbbe b97f 7d3d 110b 5bbe 1114 0dbf
00000270: 83cb 10be d0b8 30be 38b3 aabf eddb 03bf
00000280: 1f98 923b dadd 3f3e 448e dfbf efdb a6be
00000290: c352 0fbf cb95 983e b620 5d3f b6ff 0dbc
000002a0: bde8 43be 9793 b83d ef6b ecbf 2d85 b8be
000002b0: ce05 c93e 0b37 b73d 78ac 46bf 4bc6 673e
000002c0: 59b8 3cbf e500 653e 1756 ed3f 7b0e 0d3f
000002d0: 5a8e 1ebe cb95 783e e3b9 673f 6f5d d8bd
000002e0: 6f77 133f 2783 f5be 8d26 ddbf 2078 47be
000002f0: 22f2 483e cdaa 393d 90d7 13be ed08 afbe
00000300: 6482 27be 9047 c33d 5a59 aebe 403b 493d
00000310: 133e 53bd 00ab d0be 7bf0 3dbe 4c4d 8c3e
00000320: 4039 f8be 828f 673e f4a1 9fbe 605f 8b3c
00000330: 85d4 81bf 254e 2c3d 3e0d e63f 6ee5 db3e
00000340: a174 bd3d bc74 913e 9efd 7bbe f94c a53e
00000350: ba35 523d dd46 313e ace4 8f3f 2eeb 33be
00000360: 8d5b 91be 81f4 85bd 185d f1be 1430 92bc
00000370: 4141 bd3d 12fc 2a3e a8f2 09bf 9a4d a03d
00000380: 5ce9 df3d 6ff0 3fbe 508f 533e f313 2dbe
00000390: fc3a 9ebd 0012 923e 69bf 8dbe 7dd6 873e
000003a0: 1ac8 463f c8c7 03bf 2579 bebf a0c7 36be
000003b0: c76f 25bf a23f d6bd 5e6d f83e 8ace 0dbe
000003c0: be70 5b3e 06af 2d3e d23c 16be 1fc6 593e
000003d0: 75f8 953d 082d 84be b42c 653d c8ee 90be
000003e0: 471d f83e dad5 963e 8a8a e4be a90c 8bbe
000003f0: 0738 973e a73c c83e cf0f 343f 5444 e13e

fc1.bias f4 [128]
-0.18133204 -0.41265807 0.81971973 0.6057643 0.67599046 0.70107913 0.6530772 0.43196014
0.6133238 0.37647215 0.09589468 -0.4708546 -0.6297506 0.24062397 -0.45140585 -0.5798684
0.33200446 -0.5410397 0.055381086 0.71998286 0.37769485 0.6127813 0.14108756 0.59815675
0.49228084 0.45867684 -0.36419123 0.64266914 0.34505707 -0.4837446 -0.082249746 0.25852415
0.53217536 0.073398754 -0.30382028 0.7997487 0.49251482 -0.36131322 -0.14579675 -0.3390229
-0.69544774 -0.19972032 -0.37931472 -0.025706341 -0.47678113 0.15734771 0.08013425 0.619482
-0.23854804 0.66463417 0.69057906 -0.72030735 -0.31594014 0.18953024 0.6062481 0.49851003
0.35142037 0.56409717 -0.038627353 0.3067943 0.69374657 0.6711748 -0.21149541 -0.62686723
0.762332 -0.30979013 0.62579435 0.42402774 0.7996969 0.100182675 -0.20285973 0.583336
0.36784357 0.3780391 -0.43651044 0.7695692 0.6028611 -0.4455769 0.7882597 0.6353008
-0.31797928 0.56561637 0.25830165 0.5564354 0.07604308 0.47804928 -0.65044534 0.027167603
0.6449675 0.731801 -0.4393192 -0.22481929 -0.65040207 0.11598605 0.51621664 0.13051288
0.55985963 0.6342538 -0.23199277 -0.25454172 -0.4210702 -0.39934334 0.43459037 -0.24500394
0.36744457 0.50420463 0.5708377 0.8058259 -0.5193475 -0.37761572 -0.7910043 -0.5364857
-0.58095264 -0.46520972 0.12472751 -0.3401447 0.1629744 -0.43858913 0.37492868 0.65772367
-0.39701104 -0.12796603 0.17681518 0.7001152 0.8173897 0.6669113 -0.43082595 0.08231922
00000000: 1baf 39be eb47 d3be 27d9 513f 5f13 1b3f
00000010: b60d 2d3f ec79 333f 1130 273f e129 dd3e
00000020: ca02 1d3f f5c0 c03e 6e64 c43d db13 f1be
00000030: 5637 21bf 2166 763e ab1e e7be 4172 14bf
00000040: 7dfc a93e 9481 0abf 47d7 623d cc50 383f
00000050: 3861 c13e 3cdf 1c3f 4279 103e cd20 193f
00000060: 3c0c fc3e b1d7 ea3e 4677 babe f785 243f
00000070: 52ab b03e 5fad f7be 8e72 a8bd 475d 843e
00000080: a53c 083f 1652 963d 558e 9bbe 55bc 4c3f
00000090: e72a fc3e 0cfe b8be be4b 15be 6994 adbe
000000a0: dd08 32bf 7c83 4cbe 8a35 c2be 1b96 d2bc
000000b0: a81c f4be c21f 213e 6d1d a43d 5f96 1e3f
000000c0: f045 74be 7725 2a3f cac9 303f 1066 38bf
000000d0: e8c2 a1be 3714 423e 1333 1b3f b53c ff3e
000000e0: 5fed b33e ac68 103f b737 1ebd 2414 9d3e
000000f0: 6099 313f 1dd2 2b3f 4192 58be 5f7a 20bf
00000100: 3128 433f d09c 9ebe 0f34 203f 2a1a d93e
00000110: f0b8 4c3f 932c cd3d 76ba 4fbe 8255 153f
00000120: fe55 bc3e 578e c13e 4c7e dfbe 7d02 453f
00000130: 1b55 1a3f a822 e4be 63cb 493f 13a3 223f
00000140: 2ece a2be 3ccc 103f 1d40 843e 8d72 0e3f
00000150: 79bc 9b3d e0c2 f43e 9683 26bf 988e de3c
00000160: 971c 253f 4f57 3b3f 72ee e0be 0737 66be
00000170: c080 26bf 188a ed3d c626 043f 2ba5 053e
00000180: f652 0f3f 755e 223f 838f 6dbe 4b53 82be
00000190: 8396 d7be bb76 ccbe a182 de3e 50e2 7abe
000001a0: b221 bc3e 8e13 013f 6b22 123f 9b4a 4e3f
000001b0: f5f3 04bf d956 c1be 427f 4abf 2057 09bf
000001c0: 50b9 14bf f82f eebe 2371 ff3d 7227 aebe
000001d0: c3e2 263e c18e e0be a7f6 bf3e 9460 283f
000001e0: 0845 cbbe 8709 03be 0a0f 353e c03a 333f
000001f0: 7440 513f b3ba 2a3f 3895 dcbe fb96 a83d

fc2.weight f4 [2, 128]
-0.20430261 0.0713047 0.32325077 0.45627815 0.17892528 0.36065716 0.35753772 0.3764782
0.46588752 0.33319753 0.252874 -0.19663355 -1.8142322 0.3756833 -0.5555338 -1.2898271
0.13444184 -0.05299682 0.08341341 0.22563788 0.2173157 0.30352202 0.40183064 0.3092565
0.2162004 -0.21141554 -0.2307302 0.3365068 0.28623992 -2.3487546 -0.13173603 -0.36934805
0.17545594 -0.14572415 -0.068338655 0.2996834 0.18205822 -1.0408069 -0.12321846 -0.3128588
-0.8576791 -0.024751639 -0.36042726 0.065221 -1.6084692 0.18363474 -0.6760951 0.42017454
0.08399101 0.0897382 0.2359429 -0.37599134 -0.2514606 0.15884325 0.31912646 0.1855261
0.27815086 0.24649332 -1.1123269 0.116677664 0.29724506 0.3010582 -0.18494661 -0.49133953
0.39127597 0.006448835 0.1901113 0.11054152 0.294093 0.54382664 -0.23558784 0.44301203
0.18477204 0.3077842 -1.5413386 0.41853842 0.35230336 -1.3429303 0.27961472 0.2456237
-1.2439638 0.26052856 -0.32450023 0.25558582 0.017615793 0.19471529 -0.59526694 0.23499787
0.1711261 0.38606375 -1.4004292 -0.16622886 -1.7431358 0.35257128 0.0387404 0.02998571
0.32924485 0.38964874 0.008880819 -0.067361005 -0.14808589 -1.0846816 0.23026176 0.026586771
0.20219453 0.23500326 0.34878573 0.35240152 -0.96512955 -0.23615526 -0.35418326 -1.368632
-1.0274036 -1.4872342 0.44080472 -0.7421575 0.11651586 -0.76773435 0.42312798 0.31344196
-0.55610293 -0.059164304 0.45637733 0.3363647 0.2777432 0.34622648 -1.1977993 0.12601095
-0.16958676 0.05022881 0.3917927 0.3810648 0.29857078 0.27928078 0.29367816 0.235383
0.33878088 0.37122938 0.2789769 -0.20897532 -2.6739283 0.24027069 -0.23336084 -0.7283057
0.26844686 0.16498102 0.11283814 0.33682206 -0.020444198 0.3110037 0.22942075 0.28183147
0.32016188 -0.8408256 -0.44009188 0.13720328 0.25873825 -1.8680643 -0.34063193 -0.06459996
0.29757407 -0.14970681 -0.22261095 0.3004822 0.3047812 -0.32763195 -0.26158184 -0.5970667
-0.4936394 -0.5003113 -0.91287124 0.07511997 -1.0992707 0.22921006 -0.73963374 0.2674233
0.006833151 0.3365176 0.35606644 -2.0325515 0.014951278 0.230403 0.3919893 0.22246991
0.3624492 0.29534984 -0.91416407 0.2841783 0.28838775 0.32790726 -0.28182846 -0.017076103
0.2823011 -0.056690007 0.3219201 0.21968763 0.28295317 0.40721968 -0.15906093 0.35772043
0.15029238 0.31285062 -1.2878157 0.37042883 0.21974938 -0.81284434 0.34260178 0.30496216
0.151788 0.2948693 -0.70741934 0.39491275 0.2623214 0.2086062 -0.6868798 0.24772702
0.3409031 0.28416544 -1.7250912 -0.089515164 -2.5526648 0.27214193 -0.53595006 0.31864488
0.36844343 0.30249375 0.054052446 0.08008744 -0.28699732 -1.3217794 0.27205148 -0.0765196
0.3502809 0.28172898 0.31351534 0.23085177 -0.9761819 -0.074788846 -1.8494978 -0.9116911
-0.9085967 -1.2548853 0.4023649 -1.3515632 0.19123283 -0.55631435 0.49867627 0.3649111
-0.0807972 -0.2276307 0.33541793 0.27421978 0.41797403 0.3316617 -0.7629363 0.468191
00000000: b434 51be 3308 923d 2081 a53e 4a9d e93e
00000010: 3038 373e 0ea8 b83e 2f0f b73e c0c1 c03e
00000020: cf88 ee3e de98 aa3e b378 813e 4e5a 49be
00000030: c338 e8bf 9059 c03e 7737 0ebf 0e19 a5bf
00000040: 1fab 093e 3213 59bd a6d4 aa3d 9e0d 673e
00000050: 0288 5e3e 3d67 9b3e bfbc cd3e de56 9e3e
00000060: a363 5d3e 517d 58be 8a44 6cbe 9f4a ac3e
00000070: 0a8e 923e ff51 16c0 cfe5 06be 301b bdbe
00000080: b9aa 333e b638 15be 23f5 8bbd 1a70 993e
00000090: 786d 3a3e 2939 85bf f659 fcbd 072f a0be
000000a0: dc90 5bbf f3c3 cabc ec89 b8be 9692 853d
000000b0: 52e2 cdbf bf0a 3c3e 9214 2dbf 1e21 d73e
000000c0: 7b03 ac3d a9c8 b73d 049b 713e f081 c0be
000000d0: 72bf 80be cea7 223e 8b64 a33e 8efa 3d3e
000000e0: ca69 8e3e bf68 7c3e ba60 8ebf b3f4 ee3d
000000f0: 8130 983e 4d24 9a3e a562 3dbe db90 fbbe
00000100: 5355 c83e c050 d33b 89ac 423e 9863 e23d
00000110: 5c93 963e 3938 0b3f f03d 71be 79d2 e23e
00000120: e234 3d3e e495 9d3e 954a c5bf ab4a d63e
00000130: 1b61 b43e 24e5 abbf a929 8f3e c784 7b3e
00000140: 353a 9fbf 0064 853e e524 a6be 25dc 823e
00000150: ff4e 903c 7263 473e 6a63 18bf 48a3 703e
00000160: ae3b 2f3e 26aa c53e 4441 b3bf e637 2abe
00000170: 131f dfbf 3984 b43e 41ae 1e3d 97a4 f53c
00000180: c892 a83e 0a80 c73e db80 113c 91f4 89bd
00000190: d4a3 17be d9d6 8abf bdc9 6b3e 80cc d93c
000001a0: 150c 4f3e b2a4 703e 0b94 b23e f96d b43e
000001b0: bb12 77bf afd2 71be 8257 b5be 552f afbf
000001c0: f681 83bf b15d bebf 28b1 e13e 09fe 3dbf
000001d0: de9f ee3d 3d8a 44bf 3ba4 d83e 777b a03e
000001e0: c35c 0ebf 4556 72bd 4aaa e93e fe37 ac3e
000001f0: 5b34 8e3e 9944 b13e 7d51 99bf 0409 013e
00000200: 27a8 2dbe babc 4d3d 0e99 c83e ed1a c33e
00000210: 45de 983e e4fd 8e3e fc5c 963e 3e08 713e
00000220: b074 ad3e c711 be3e 0fd6 8e3e a0fd 55be
00000230: a421 2bc0 8509 763e 25f6 6ebe 3e72 3abf
00000240: de71 893e c9f0 283e af17 e73d f173 ac3e
00000250: 977a a7bc e13b 9f3e 46ed 6a3e 374c 903e
00000260: 42ec a33e 5940 57bf b953 e1be 047f 0c3e
00000270: 5779 843e bb1c efbf 4f67 aebe fc4c 84bd
00000280: a15b 983e be4c 19be 20f4 63be ced8 993e
00000290: 480c 9c3e 60bf a7be 0eee 85be 5dd9 18bf
000002a0: 4ebe fcbe 6714 00bf eeb1 69bf 80d8 993d
000002b0: e7b4 8cbf 0bb6 6a3e a358 3dbf b5eb 883e
000002c0: a0e8 df3b 094c ac3e 574e b63e 5315 02c0
000002d0: 35f6 743c c4ee 6b3e d2b2 c83e 27cf 633e
000002e0: f192 b93e 1838 973e a806 6abf d17f 913e
000002f0: 8fa7 933e 76e3 a73e d24b 90be 2fe3 8bbc
00000300: c589 903e c833 68bd b6d2 a43e cbf5 603e
00000310: 3ddf 903e 197f d03e dee0 22be 2227 b73e
00000320: 3fe6 193e f52d a03e 25d7 a4bf d9a8 bd3e
00000330: fb05 613e 9116 50bf 8069 af3e 0024 9c3e
00000340: 506e 1b3e 1cf9 963e 6f19 35bf 0132 ca3e
00000350: fe4e 863e dd9c 553e 5bd7 2fbf 27ac 7d3e
00000360: da8a ae3e 227e 913e cacf dcbf ba53 b7bd
00000370: dc5e 23c0 3056 8b3e 0634 09bf 6c25 a33e
00000380: 9ea4 bc3e 76e0 9a3e 1966 5d3d e204 a43d
00000390: 50f1 92be 1130 a9bf 554a 8b3e 4fb6 9cbd
000003a0: 0558 b33e c83e 903e 1585 a03e 6864 6c3e
000003b0: 0fe7 79bf e52a 99bd 58bc ecbf 9764 69bf
000003c0: cb99 68bf 15a0 a0bf c602 ce3e 0600 adbf
000003d0: 8ad2 433e 9e6a 0ebf 7f52 ff3e a1d5 ba3e
000003e0: 0179 a5bd 0618 69be e6bb ab3e 8966 8c3e
000003f0: b100 d63e 90cf a93e cb4f 43bf bbb6 ef3e

fc2.bias f4 [2]
0.31074426 0.41607952
00000000: df19 9f3e 6008 d53e

fc1.weight f4 [128, 4]
-0.3628484 -0.32466775 -0.6571657 -0.07566696 -0.17054117 0.16004808 -0.00931753 -0.0363891
-0.31023926 -0.019156948 -0.18469416 0.1471141 -0.16512276 -0.4260028 -0.43622953 -0.25210366
-0.4269374 0.18558824 0.02335262 0.04673651 -0.2700242 -0.12437759 -0.039810404 -0.1438821
0.68435025 -0.33855253 -0.84246653 0.1716407 0.15902698 -0.25899243 -1.0997465 0.037823647
0.3889395 -0.17441799 -0.16338186 -0.44394517 -0.22553639 -0.45572937 0.015181731 -0.28797963
-0.6843731 0.46212113 0.71705747 0.01630381 -0.31193584 -0.43946263 -0.027817687 -0.2690905
-0.54840475 0.22802058 2.3908453 0.47458187 0.64001536 -0.08891444 -1.1829964 0.271785
0.34263885 -7.816749e-05 1.3515491 0.61686236 -0.17203633 0.19673678 2.3535132 0.6521607
-0.1569079 0.33361512 1.1175064 -0.12563136 -0.07530101 -0.26498613 -0.30866587 0.054590918
0.70098364 -0.52841467 -0.5115361 0.091492824 -0.06568282 0.14515658 -0.37702778 0.27894554
0.38390955 0.31696692 -0.57668597 -0.0023572976 -0.018000249 0.3036643 0.6817461 -0.2462855
0.17715177 -0.29077768 -0.93172526 0.04319827 -0.3397561 0.044350766 0.3184954 -0.3685478
0.056129027 0.30774355 -0.42522368 0.07910185 0.068258606 -0.12292157 -1.9642732 -0.25922662
0.48804754 0.31054556 -0.6179472 -0.25104648 -0.56722754 0.24591824 0.31176478 -0.37057203
0.68199563 -0.24496426 -0.86067057 0.18528022 -0.87635136 0.45113954 1.6045872 0.6344675
-0.34241953 -0.6533292 -0.50932056 -0.5274455 0.061884664 -0.20764227 -1.2232227 -0.37582538
-0.103183135 0.30631793 -0.6695596 0.36677557 -0.5055135 0.1650663 -0.58834684 -0.123293616
-0.11304612 0.5089527 -0.18741573 -0.3609613 0.4802788 0.11201744 -0.4313409 0.20917666
0.22262628 -0.41870704 -1.0250798 0.24259698 -0.5620996 -0.33727857 1.9336987 0.126943
-0.3496153 0.080670975 -0.23928523 -0.56876034 -0.151709 -0.16798903 -1.2455883 -0.50749946
0.0028739208 0.19218205 -1.6620064 -0.3112855 -0.5706994 0.28851125 0.7472244 -0.017197918
-0.16985275 0.13289325 -1.6922354 -0.3495049 0.40270436 0.09810473 -0.72583103 0.23305032
-0.7639974 0.2281701 1.7635182 0.5226982 -0.14382122 0.24684094 0.8961031 -0.10006094
0.59366214 -0.48635492 -1.642102 -0.1711505 0.1879771 0.040071703 -0.15019119 -0.33756524
-0.16358334 0.09535134 -0.34052545 0.04912877 -0.03470098 -0.39328015 -0.16187952 0.27218637
-0.5171747 0.21249627 -0.3321077 0.015715426 -1.0104535 0.03943072 1.7239239 0.40751404
0.083978765 0.29496443 -0.29128483 0.27374366 0.062636614 0.17515877 1.120489 -0.16766593
-0.28617775 -0.062690146 -0.48699063 -0.019654222 0.098154925 0.17125723 -0.550898 0.0784392
0.114016 -0.183827 0.19316085 -0.16975547 -0.07214392 0.28941315 -0.2894409 0.26485685
0.774491 -0.50713557 -1.4517069 -0.1819683 -0.6386265 -0.1023607 0.46659917 -0.12975174
0.22595245 0.17889631 -0.15481295 0.21314651 0.07768347 -0.25338295 0.043549705 -0.28432414
0.48062104 0.292518 -0.4985211 -0.2864705 0.29070723 0.40283015 0.65634966 0.39937118
00000000: 44c7 b9be da3a a6be 033c 28bf 47f7 9abd
00000010: 58a2 2ebe a5e3 233e 8ea8 18bc bd0c 15bd
00000020: aed7 9ebe 08ef 9cbc 7720 3dbe 14a5 163e
00000030: f115 29be 0a1d dabe 7a59 dfbe bb13 81be
00000040: 8a97 dabe d80a 3e3e fe4d bf3c c86e 3f3d
00000050: 9d40 8abe aeb9 febd 3c10 23bd d455 13be
00000060: 9431 2f3f c256 adbe e3ab 57bf 94c2 2f3e
00000070: f8d7 223e a89a 84be 7ec4 8cbf f8ec 1a3d
00000080: 1423 c73e a19a 32be 934d 27be c84c e3be
00000090: 03f3 66be 5c55 e9be ccbc 783c 1172 93be
000000a0: 1333 2fbf 249b ec3e 1491 373f 918f 853c
000000b0: 0eb6 9fbe 3f01 e1be ebe1 e3bc 3bc6 89be
000000c0: 4164 0cbf 3a7e 693e 9c03 1940 65fc f23e
000000d0: 0cd8 233f c618 b6bd 6d6c 97bf 6727 8b3e
000000e0: 5c6e af3e daed a3b8 90ff ac3f b1ea 1d3f
000000f0: 4b2a 30be 5e75 493e f69f 1640 01f4 263f
00000100: 77ac 20be 9acf aa3e 730a 8f3f 82a5 00be
00000110: 6a37 9abd 43ac 87be 7409 9ebe ba9a 5f3d
00000120: aa73 333f 2f46 07bf 08f4 02bf 9760 bb3d
00000130: b784 86bd eda3 143e c909 c1be f3d1 8e3e
00000140: cb8f c43e 7d49 a23e b1a1 13bf e47c 1abb
00000150: 4275 93bc e379 9b3e ea86 2e3f 4432 7cbe
00000160: 4667 353e d0e0 94be 8c85 6ebf abf0 303d
00000170: 83f4 adbe 26a9 353d d411 a33e 4cb2 bcbe
00000180: 8de7 653d 9090 9d3e ebb6 d9be 2700 a23d
00000190: 2bcb 8b3d 4ebe fbbd 4e6d fbbf 5ab9 84be
000001a0: 5ee1 f93e d4ff 9e3e ca31 1ebf 2a89 80be
000001b0: d335 11bf fed1 7b3e a29f 9f3e 9ebb bdbe
000001c0: 4497 2e3f e9d7 7abe e854 5cbf 19ba 3d3e
000001d0: 9058 60bf c3fb e63e 1d63 cd3f 766c 223f
000001e0: 9d51 afbe 9540 27bf d562 02bf ab06 07bf
000001f0: c67a 7d3d 2da0 54be 9092 9cbf 2f6c c0be
00000200: ae51 d3bd b4d5 9c3e 4268 2bbf 02ca bb3e
00000210: 5569 01bf 2407 293e e69d 16bf 5d81 fcbd
00000220: b984 e7bd b94a 023f e9e9 3fbe ebcf b8be
00000230: 1ae7 f53e 6669 e53d b7d8 dcbe 6832 563e
00000240: 25f8 633e c560 d6be d135 83bf 586b 783e
00000250: c2e5 0fbf c7af acbe 7083 f73f 59fd 013e
00000260: c700 b3be d336 a53d 3007 75be 479a 11bf
00000270: 9b59 1bbe 5105 2cbe 706f 9fbf 7ceb 01bf
00000280: 6458 3c3b 5fcb 443e a0bc d4bf d060 9fbe
00000290: 5b19 12bf bfb7 933e 194a 3f3f a6e2 8cbc
000002a0: e1ed 2dbe 2b15 083e 2b9b d8bf 4ef2 b2be
000002b0: 442f ce3e 22eb c83d 10d0 39bf bea4 6e3e
000002c0: 5595 43bf 6ca5 693e f7ba e13f 8dcf 053f
000002d0: df45 13be dfc3 7c3e 0367 653f c0ec ccbd
000002e0: 3efa 173f 8303 f9be 6630 d2bf 1442 2fbe
000002f0: 127d 403e 3a22 243d b8cb 19be 5ad5 acbe
00000300: 6482 27be 9047 c33d 5a59 aebe 403b 493d
00000310: 9d22 0ebd 045c c9be bfc3 25be 035c 8b3e
00000320: 9065 04bf 9f98 593e 050a aabe a3bd 803c
00000330: 8a56 81bf 1b82 213d 8aa9 dc3f aea5 d03e
00000340: 0ffd ab3d 9405 973e 4923 95be 2128 8c3e
00000350: a047 803d d25c 333e 2f6c 8f3f 9eb0 2bbe
00000360: e485 92be b163 80bd d656 f9be e401 a1bc
00000370: 7305 c93d 0e5e 2f3e a707 0dbf bba4 a03d
00000380: 3881 e93d 253d 3cbe f5cb 453e 61d4 2dbe
00000390: 31c0 93bd f62d 943e 9931 94be 519b 873e
000003a0: 0b45 463f a3d3 01bf 88d1 b9bf e655 3abe
000003b0: 077d 23bf 7da2 d1bd 16e6 ee3e a4dd 04be
000003c0: 1460 673e 9830 373e 4987 1ebe 1443 5a3e
000003d0: 8318 9f3d 69bb 81be 2d61 323d ef92 91be
000003e0: f613 f63e ebc4 953e 283e ffbe 43ac 92be
000003f0: 94d7 943e c13f ce3e 8806 283f 617a cc3e

fc1.bias f4 [128]
-0.19145425 -0.41265807 0.79762787 0.5807225 0.6560401 0.6823172 0.6250718 0.4049173
0.592858 0.36618862 0.07281367 -0.47062373 -0.59042555 0.21936561 -0.4156715 -0.5574674
0.31517375 -0.5325829 0.04388274 0.69981223 0.34712186 0.596812 0.13235065 0.58413965
0.4752443 0.43622768 -0.34346065 0.62180054 0.32327226 -0.4515096 -0.10125151 0.23862492
0.5122291 0.035870373 -0.28260672 0.7804418 0.46432072 -0.33603138 -0.08878775 -0.30449563
-0.67688715 -0.23050402 -0.37830266 -0.010455032 -0.4494037 0.14183013 0.083091766 0.599197
-0.23854804 0.6525889 0.66594416 -0.67918897 -0.2869638 0.17362706 0.58657014 0.47801116
0.33113572 0.5440511 -0.02382484 0.29808417 0.67206305 0.65097576 -0.18613376 -0.5871232
0.74233913 -0.30979013 0.60573083 0.4032373 0.77974886 0.097642004 -0.17532767 0.5618763
0.3468239 0.36187205 -0.40191928 0.7513269 0.58275783 -0.41272604 0.7680108 0.6077211
-0.2795337 0.5481662 0.24208938 0.5352723 0.06869648 0.4590759 -0.6221884 0.00070413586
0.6248705 0.7118032 -0.41264907 -0.19070518 -0.6050574 0.10797248 0.49212018 0.117048584
0.53816956 0.61441797 -0.23199277 -0.25376573 -0.3706187 -0.3706782 0.40827858 -0.24500394
0.34785876 0.48332426 0.5506944 0.78609186 -0.49937683 -0.38626868 -0.7480326 -0.5094631
-0.567513 -0.43035996 0.114063725 -0.32263458 0.14949887 -0.41591427 0.35431013 0.63971025
-0.35712406 -0.08723498 0.15846673 0.6790775 0.79614484 0.6509229 -0.39501384 0.078904
00000000: 950c 44be eb47 d3be 5731 4c3f 3baa 143f
00000010: 3ef2 273f 57ac 2e3f b504 203f 5251 cf3e
00000020: 8bc5 173f 137d bb3e 551f 953d 98f5 f0be
00000030: 2126 17bf 61a1 603e e5d2 d4be 2fb6 0ebf
00000040: 745e a13e 5a57 08bf 63be 333d e526 333f
00000050: f5b9 b13e acc8 183f ee86 073e 2d8a 153f
00000060: 3953 f33e 3c59 df3e 13da afbe 522e 1f3f
00000070: f183 a53e 442c e7be f45c cfbd 175a 743e
00000080: 7221 033f d0ec 123d d4b1 90be 09cb 473f
00000090: 72bb ed3e 4e0c acbe 5ad6 b5bd dae6 9bbe
000000a0: 7a48 2dbf 3f09 6cbe e3b0 c1be 954b 2bbc
000000b0: 3e18 e6be eb3b 113e 042c aa3d f964 193f
000000c0: f045 74be 1110 273f 517b 2a3f 54df 2dbf
000000d0: ebec 92be 4bcb 313e 7629 163f e1bd f43e
000000e0: 9f8a a93e ef46 0b3f 502c c3bc 7d9e 983e
000000f0: 530c 2c3f 59a6 263f d999 3ebe b54d 16bf
00000100: f009 3e3f d09c 9ebe 2d11 1b3f 1f75 ce3e
00000110: 9f9d 473f 88f8 c73d 1989 33be 20d7 0f3f
00000120: e792 b13e 4b47 b93e 5dc8 cdbe f656 403f
00000130: 9e2f 153f d450 d3be 5b9c 443f 9c93 1b3f
00000140: 0b1f 8fbe 9f54 0c3f 47e6 773e 9b07 093f
00000150: bdb0 8c3d ff0b eb3e bd47 1fbf c295 383a
00000160: 83f7 1f3f bc38 363f bd46 d3be 3848 43be
00000170: 0be5 1abf ad20 dd3d 2df7 fb3e 2bb7 ef3d
00000180: 7bc5 093f 7f4a 1d3f 838f 6dbe 95ed 81be
00000190: bcc1 bdbe 88c9 bdbe e409 d13e 50e2 7abe
000001a0: 8b1a b23e 4776 f73e 4ffa 0c3f 513d 493f
000001b0: 52ae ffbe 02c5 c5be 117f 3fbf 2c6c 02bf
000001c0: 8848 11bf 2458 dcbe 3e9a e93d 5c30 a5be
000001d0: 3b16 193e b7f2 d4be 2368 b53e 0dc4 233f
000001e0: f7d8 b6be 41a8 b2bd 1a45 223e 06d8 2d3f
000001f0: 26d0 4b3f e2a2 263f 413f cabe 6c98 a13d

fc2.weight f4 [2, 128]
-0.18401498 0.0713047 0.30191714 0.44135106 0.16170053 0.3427115 0.3373119 0.3562905
0.43596956 0.3135734 0.24713022 -0.16814058 -1.7574891 0.36974463 -0.46720082 -1.1593379
0.121024914 -0.017487356 0.07087675 0.20594785 0.19792467 0.28139818 0.3933691 0.28674278
0.20756593 -0.21996033 -0.24526902 0.30676243 0.27531984 -2.2363663 -0.12018806 -0.31982106
0.15802602 -0.12915349 -0.0743709 0.2846966 0.1713227 -0.9463026 -0.13153097 -0.34275642
-0.744067 0.053992074 -0.40050542 0.06265911 -1.4938191 0.16791539 -0.6577765 0.39067075
0.08399101 0.07444696 0.22087765 -0.41020676 -0.21147496 0.14089186 0.30150265 0.17247255
0.2598086 0.23024571 -1.081275 0.100101165 0.2814372 0.2830227 -0.20738494 -0.43491477
0.37532705 0.006448835 0.17018451 0.09872744 0.2772124 0.54179466 -0.22936912 0.42387673
0.17835212 0.28773728 -1.4404619 0.38978508 0.33108795 -1.2000673 0.2655262 0.22890691
-1.1199095 0.24434327 -0.3207946 0.24052688 0.024810769 0.18165614 -0.5798172 0.23913433
0.15664807 0.36906233 -1.3923537 -0.14112723 -1.6677899 0.33942428 0.027267111 0.017252259
0.31491947 0.36393553 0.008880819 -0.025474977 -0.15816951 -1.081192 0.21183787 0.026586771
0.18489124 0.21232264 0.32958964 0.33311397 -0.91190565 -0.19970074 -0.39929163 -1.238762
-0.9741046 -1.3982446 0.4301231 -0.7938898 0.10200166 -0.7360082 0.4042328 0.29598886
-0.48373568 -0.058610436 0.45026043 0.31374186 0.2602062 0.3219884 -1.0660747 0.1235179
-0.1536849 0.05022881 0.3733407 0.36054215 0.2782136 0.2573809 0.27846244 0.21645223
0.32120293 0.3537694 0.26099262 -0.19289964 -2.4935067 0.23109551 -0.2260135 -0.69457644
0.25823525 0.12379711 0.11312755 0.32004887 -0.018110083 0.2931265 0.22677375 0.259996
0.29888877 -0.8027881 -0.40447515 0.12793586 0.24441278 -1.8100705 -0.31368655 -0.10894534
0.2824883 -0.15828782 -0.22227056 0.28255618 0.28499985 -0.3303193 -0.26036802 -0.45895615
-0.44938868 -0.4681588 -0.7754523 0.07470046 -1.0617414 0.22523539 -0.7005709 0.25216803
0.006833151 0.31787542 0.33493328 -1.8463748 0.008259579 0.22681126 0.3711513 0.203054
0.34092277 0.27869627 -0.8787446 0.26884192 0.27119917 0.30431902 -0.26110673 -0.011678236
0.2603682 -0.056690007 0.30519974 0.20534842 0.26573795 0.39936334 -0.10536643 0.33650845
0.13058807 0.29879263 -1.1908828 0.35201138 0.20237862 -0.75002986 0.3215316 0.28565744
0.10992675 0.2724111 -0.6831969 0.37434244 0.23984514 0.19314983 -0.5959299 0.23069566
0.32055923 0.26156217 -1.5720371 -0.07700402 -2.367235 0.27659115 -0.4970036 0.30363762
0.34634358 0.28544584 0.054052446 0.03280562 -0.24892455 -1.167629 0.2538327 -0.0765196
0.33697486 0.26617318 0.29703176 0.21194038 -0.8885933 -0.061846636 -1.6285634 -0.8493282
-0.8089715 -1.157016 0.40583447 -1.185473 0.17434856 -0.5189612 0.47659424 0.34234735
-0.08654458 -0.23069571 0.32721156 0.25598383 0.39440882 0.3141067 -0.68790823 0.45094967
00000000: 6c6e 3cbe 3308 923d e294 9a3e c4f8 e13e
00000010: d394 253e e277 af3e 25b4 ac3e b56b b63e
00000020: 6737 df3e b18c a03e b40f 7d3e 0b2d 2cbe
00000030: 67f5 e0bf 2b4f bd3e f234 efbe 2f65 94bf
00000040: e9db f73d a541 8fbc d427 913d fee3 523e
00000050: c4ac 4a3e 6c13 903e ad67 c93e f3cf 923e
00000060: 2a8c 543e 483d 61be cd27 7bbe f70f 9d3e
00000070: b9f6 8c3e a020 0fc0 2825 f6bd 96bf a3be
00000080: 93d1 213e d040 04be c54f 98bd c1c3 913e
00000090: 386f 2f3e e340 72bf 0eb0 06be c57d afbe
000000a0: 2d7b 3ebf cb26 5d3d 0c0f cdbe 6b53 803d
000000b0: 7735 bfbf 03f2 2b3e 0a64 28bf ff05 c83e
000000c0: 7b03 ac3d a677 983d c02d 623e 9f06 d2be
000000d0: e48c 58be f545 103e 8e5e 9a3e a59c 303e
000000e0: a205 853e 88c5 6b3e 3867 8abf d701 cd3d
000000f0: 8918 903e 5ae8 903e b85c 54be 26ad debe
00000100: de2a c03e c050 d33b d944 2e3e 9d31 ca3d
00000110: c9ee 8d3e 0eb3 0a3f bddf 6abe 5f06 d93e
00000120: f0a1 363e 4d52 933e 0e61 b8bf e991 c73e
00000130: 5c84 a93e ce9b 99bf 0df3 873e 9366 6a3e
00000140: 3259 8fbf 1f35 7a3e 313f a4be ae4c 763e
00000150: f43f cb3c 1104 3a3e e66e 14bf a1df 743e
00000160: 5a68 203e bdf5 bc3e a538 b2bf a883 10be
00000170: 247a d5bf 05c9 ad3e 475f df3c 9c54 8d3c
00000180: 203d a13e c255 ba3e db80 113c e6b0 d0bc
00000190: 30f7 21be 8064 8abf 07ec 583e 80cc d93c
000001a0: 2154 3d3e 1b6b 593e f9bf a83e ea8d aa3e
000001b0: a672 69bf 5a7e 4cbe f46f ccbe c18f 9ebf
000001c0: eb5e 79bf aef9 b2bf 1839 dc3e 5d3c 4bbf
000001d0: 3fe6 d03d 096b 3cbf 9af7 ce3e da8b 973e
000001e0: 34ac f7be 7f11 70bd 8988 e63e c6a2 a03e
000001f0: bf39 853e aadb a43e 2375 88bf f4f6 fc3d
00000200: 935f 1dbe babc 4d3d 8326 bf3e fb98 b83e
00000210: 0372 8e3e 6ec7 833e a192 8e3e a7a5 5d3e
00000220: b674 a43e 4321 b53e d3a0 853e 7c87 45be
00000230: 9d95 1fc0 4da4 6c3e 1570 67be c3cf 31bf
00000240: 6937 843e 5789 fd3d 6baf e73d 72dd a33e
00000250: 995b 94bc ad14 963e 6137 683e 321e 853e
00000260: f307 993e 8583 4dbf 5e17 cfbe 9e01 033e
00000270: 5847 7a3e 64b0 e7bf 869b a0be bc1e dfbd
00000280: 4ea2 903e 3416 22be e59a 63be 34ab 903e
00000290: 80eb 913e 9c1f a9be f54e 85be 4dfc eabe
000002a0: 4616 e6be 83b2 efbe 0b84 46bf 8efc 983d
000002b0: 24e7 87bf 1ba4 663e 9d58 33bf 2b1c 813e
000002c0: a0e8 df3b 91c0 a23e 607c ab3e 0256 ecbf
000002d0: 2f53 073c 3641 683e 8b07 be3e 63ed 4f3e
000002e0: 6e8d ae3e 47b1 8e3e 68f5 60bf a6a5 893e
000002f0: 9eda 8a3e b4cf 9b3e c8af 85be 1256 3fbc
00000300: fb4e 853e c833 68bd 2443 9c3e db46 523e
00000310: ce0e 883e 5a79 cc3e 5bca d7bd d64a ac3e
00000320: e1b8 053e 59fb 983e d96e 98bf d63a b43e
00000330: 573c 4f3e f501 40bf ca9f a43e b141 923e
00000340: 4721 e13d 7879 8b3e fee5 2ebf d0a9 bf3e
00000350: f799 753e 12c9 453e dd8e 18bf 7c3b 6c3e
00000360: 5720 a43e 7aeb 853e 8338 c9bf 49b4 9dbd
00000370: c780 17c0 5b9d 8d3e 4177 febe 6476 9b3e
00000380: f253 b13e f525 923e 1966 5d3d 305f 063d
00000390: 14e6 7ebe de74 95bf 5cf6 813e 4fb6 9cbd
000003a0: f887 ac3e da47 883e 8c14 983e e606 593e
000003b0: da7a 63bf e652 7dbd c474 d0bf 936d 59bf
000003c0: c218 4fbf 1a19 94bf 89c9 cf3e 94bd 97bf
000003d0: 6e88 323e a4da 04bf 2904 f43e 2748 af3e
000003e0: 493e b1bd 7f3b 6cbe 4688 a73e 5010 833e
000003f0: f4ef c93e 98d2 a03e c11a 30bf e0e2 e63e

fc2.bias f4 [2]
0.29147407 0.39493027
00000000: 173c 953e 4d34 ca3e

exp_avg f4 [128, 4]
0.00018989049 0.00047214073 4.780016e-05 -0.00025315417 6e-45 6e-45 6e-45 -6e-45
-0.00034733993 -0.0014547603 2.5693233e-05 0.0015822025 -0.00046826788 -0.002410795 9.3768795e-05 0.002790867
-0.00023254006 -0.0006902341 -2.681893e-05 0.0005896187 -0.0001963026 -0.0017425229 0.00011702296 0.002344443
-0.00031444684 -0.0017988569 9.485944e-05 0.0022183298 -0.00019501557 -0.0017832966 0.00015467849 0.0024669496
-0.0003691402 -0.001246861 -7.3483084e-06 0.0011508215 -0.0004021499 -0.0014875765 2.4803196e-05 0.0015358356
-0.00018568107 -0.00020439086 -9.7604745e-05 -0.000107217595 0.00019366517 0.0002645945 3.8963946e-05 -1.892078e-05
0.0011164001 0.0067035537 -0.001037655 -0.009564668 0.0002661481 -0.0008825371 0.00023329207 0.0021438
-0.00013612723 0.0018960155 -0.00054311176 -0.0038422889 0.0009858474 0.005501405 -0.0011299629 -0.008489685
-1.6518143e-06 0.00026063705 -1.2284298e-05 -0.0002757969 4.3312102e-05 6.925464e-05 6.371415e-06 -2.2008539e-05
-0.00018388093 -0.00051335734 2.3003982e-05 0.00048785226 -0.00027311934 -0.0009285584 -1.34777465e-05 0.00088687317
0.00022902584 -6.665787e-05 5.391089e-05 0.0004775663 -0.00035388515 -0.0008591093 2.9551618e-05 0.00088489597
-0.00056461425 -0.0023196856 0.00016478023 0.002767904 -7.3258474e-05 -0.00078794535 6.6694374e-05 0.0012129496
-0.00028470295 -0.0009190603 -1.49272e-05 0.00085284543 -0.0001635474 -0.00056134094 0.00021028004 0.00081747276
-4.9536034e-06 -0.00017282096 0.00016408639 0.0005147535 -0.00030789245 -0.0008056429 1.3698354e-05 0.00078919507
-0.0002513513 -0.0009476668 3.0791343e-05 0.0011284184 0.0013112254 0.0094959345 -0.0016354778 -0.014443464
3.414862e-05 -0.00032237289 0.00011675848 0.00069133 0.00026057434 0.0008680729 0.00015125195 -0.0005243269
-0.00022966893 -0.00067330763 -2.8161601e-05 0.00056742673 0.00018429705 0.00022690967 6.174095e-05 5.4654054e-05
8.808775e-05 -0.00016053501 8.659425e-05 0.00045341608 -0.00032361448 -0.0014665644 5.2024065e-05 0.0016764357
-5.9163358e-05 -0.00047977298 6.883618e-06 0.00054201944 0.0016641322 0.0063165557 -0.0006877057 -0.0077950363
0.00015437951 4.191192e-05 8.873381e-05 0.00031708044 0.00022363654 -0.000261248 0.00027709003 0.001189723
0.00032027185 0.0015291034 4.832717e-05 -0.0014388829 6.1701154e-05 0.00016311473 -6.6480466e-06 -0.00017528683
0.00032713078 -0.0005697744 0.00047494634 0.002206402 1.4942265e-05 -0.00021059127 5.188589e-05 0.00041298222
0.00072259747 0.006637453 -0.0011996328 -0.010558706 5.2722608e-05 0.00037640333 -3.350165e-05 -0.00044001063
0.0011161702 0.0016465894 0.00034147422 8.783241e-06 -0.0003253171 -0.0009924343 1.5742331e-05 0.0009789497
0.0 0.0 0.0 0.0 6.484841e-05 0.00040522448 -4.6655154e-05 -0.0006520965
-0.00034631058 -0.00102757 -1.9146366e-05 0.0009258067 0.0006308379 0.00078200264 0.00022418595 0.00042491138
-0.00031830356 -8.442919e-05 -4.036545e-05 -0.0003397166 1.5199063e-06 0.00038045592 -4.7898808e-05 -0.00057802926
-0.00021592718 -0.0013258781 3.00921e-05 0.0015575486 -0.00021006766 -0.0008510287 1.5462225e-05 0.0009173653
-0.00031092603 -0.0012135458 9.122691e-06 0.0012692701 -0.00026225863 -0.0011140016 2.1575293e-05 0.0012200623
0.0010946963 0.00230096 0.0004203551 -0.00036111142 -0.00014446833 -0.00021067455 -6.3993044e-05 -1.547452e-05
-0.00026866418 -0.0014276046 6.1170365e-05 0.0017124504 -0.0003050863 -0.0014031583 4.2002914e-05 0.0015975304
7.10573e-06 -0.0002015971 4.2430253e-05 0.00033642704 -0.0005403876 -0.0005666091 -7.506772e-05 -7.0990376e-05
00000000: 571d 4739 a889 f739 087d 4838 c7b9 84b9
00000010: 0400 0000 0400 0000 0400 0000 0400 0080
00000020: 2d1b b6b9 a8ad beba cc87 d737 e861 cf3a
00000030: da81 f5b9 6efe 1dbb bda5 c438 fae6 363b
00000040: ffd5 73b9 d4f0 34ba 37f9 e0b7 a490 1a3a
00000050: 94d6 4db9 5e65 e4ba 396a f538 3aa5 193b
00000060: 57dc a4b9 9fc7 ebba 46ef c638 6661 113b
00000070: 187d 4cb9 81bd e9ba 3131 2239 8cac 213b
00000080: 2989 c1b9 b66d a3ba 7d91 f6b6 29d7 963a
00000090: a5d7 d2b9 c9fa c2ba 7510 d037 174e c93a
000000a0: 62b3 42b9 c151 56b9 26b1 ccb8 02da e0b8
000000b0: 9912 4b39 46b9 8a39 386d 2338 11b8 9eb7
000000c0: 2c54 923a 7ca9 db3b ed01 88ba 20b5 1cbc
000000d0: cb89 8b39 105a 67ba dd9f 7439 ff7e 0c3b
000000e0: 60bd 0eb9 b983 f83a 9d5f 0eba e9ce 7bbb
000000f0: 8d37 813a 2145 b43b 431b 94ba 5218 0bbc
00000100: e8b3 ddb5 1da6 8839 a818 4eb7 d598 90b9
00000110: 04aa 3538 cd3c 9138 0aca d536 fa9e b8b7
00000120: 29d0 40b9 d492 06ba adf8 c037 6cc6 ff39
00000130: 7531 8fb9 806a 73ba 7b1e 62b7 0d7d 683a
00000140: a826 7039 acca 8bb8 611e 6238 dd61 fa39
00000150: a989 b9b9 d935 61ba 9ee5 f737 5df8 673a
00000160: 9f02 14ba de05 18bb dbc8 2c39 b965 353b
00000170: 58a2 99b8 1e8e 4eba 45de 8b38 d6fb 9e3a
00000180: 2f44 95b9 18ed 70ba d66f 7ab7 7d91 5f3a
00000190: ec7d 2bb9 f426 13ba 9e7e 5c39 ab4b 563a
000001a0: 2137 a6b6 4637 35b9 9b0e 2c39 86f0 063a
000001b0: a06c a1b9 c831 53ba fcd1 6537 fce1 4e3a
000001c0: cdc7 83b9 d86c 78ba f425 0138 70e7 933a
000001d0: 6cdd ab3a d694 1b3c 875d d6ba 47a4 6cbc
000001e0: cd3a 0f38 2804 a9b9 3bdc f438 5f3a 353a
000001f0: b29d 8839 638f 633a 6399 1e39 fc72 09ba
00000200: 49d3 70b9 e980 30ba 943c ecb7 5dbf 143a
00000210: dd3f 4139 9aee 6d39 ec7a 8138 583c 6538
00000220: c0bb b838 4a55 28b9 ef99 b538 7ab8 ed39
00000230: cdaa a9b9 bc39 c0ba 6a34 5a38 d9bb db3a
00000240: 2c26 78b8 0a8a fbb9 d4f9 e636 4f16 0e3a
00000250: 031f da3a 1cfb ce3b 2647 34ba 816d ffbb
00000260: efe0 2139 95ca 2f38 9a16 ba38 d13d a639
00000270: fa7f 6a39 1df8 88b9 6546 9139 7bf0 9b3a
00000280: 29ea a739 326c c83a e7b2 4a38 e698 bcba
00000290: 8e65 8138 c709 2b39 4912 dfb6 33cd 37b9
000002a0: c082 ab39 ea5c 15ba 3802 f939 4899 103b
000002b0: 8ab0 7a37 2ad2 5cb9 0da0 5938 8985 d839
000002c0: b26c 3d3a fe7e d93b ff3c 9dba 6cfe 2cbc
000002d0: 7822 5d38 0058 c539 1f84 0cb8 3ab1 e6b9
000002e0: 754c 923a 5fd2 d73a e507 b339 bc5b 1337
000002f0: 528f aab9 9214 82ba 660e 8437 1a50 803a
00000300: 0000 0000 0000 0000 0000 0000 0000 0000
00000310: 3aff 8738 4f74 d439 97af 43b8 75f1 2aba
00000320: 0591 b5b9 87af 86ba 829c a0b7 d6b1 723a
00000330: d15e 253a 4fff 4c3a 7513 6b39 a4c6 de39
00000340: fbe1 a6b9 940f b1b8 124e 29b8 fd1b b2b9
00000350: 95ff cb35 ee77 c739 f4e6 48b8 e386 17ba
00000360: 836a 62b9 16c9 adba 4b6e fc37 a926 cc3a
00000370: 9c45 5cb9 9217 5fba e0b4 8137 587b 703a
00000380: c903 a3b9 d70f 9fba a90d 1937 a35d a63a
00000390: c27f 89b9 b103 92ba 97fc b437 7fea 9f3a
000003a0: ea7b 8f3a b4cb 163b 1b63 dc39 8e53 bdb9
000003b0: 6c7c 17b9 85e8 5cb9 0134 86b8 47cf 81b7
000003c0: 7fdb 8cb9 761e bbba 9748 8038 4d74 e03a
000003d0: fdf3 9fb9 2eea b7ba 492c 3038 3a64 d13a
000003e0: c26d ee36 cf63 53b9 23f7 3138 7962 b039
000003f0: cca8 0dba 7e88 14ba ad6d 9db8 abe0 94b8

exp_avg_sq f4 [128, 4]
1.203595e-06 2.956954e-06 4.4238266e-08 2.5447541e-06 2.68325e-40 1.752414e-38 1.54315e-40 2.5110918e-38
2.3522618e-05 7.239397e-05 1.6406022e-06 0.00010886898 9.356585e-06 7.8227524e-05 1.7880839e-06 0.00014680595
1.1255357e-05 3.2603602e-05 8.0360417e-07 4.988204e-05 1.0890233e-05 5.357317e-05 1.1973884e-06 8.9564586e-05
1.8341167e-05 5.8589583e-05 1.2326924e-06 8.6820975e-05 1.6078768e-05 5.697784e-05 1.1400668e-06 8.711625e-05
2.7849726e-05 7.149058e-05 1.5848584e-06 8.865872e-05 5.3242775e-06 4.7912577e-05 1.197572e-06 9.369456e-05
4.669573e-06 1.7491395e-05 5.221581e-07 2.3802202e-05 1.2208974e-06 1.5872102e-06 2.36354e-08 8.249723e-08
5.1300573e-05 0.00090755697 4.2112053e-05 0.0026897031 1.3353705e-05 4.04502e-05 9.752235e-07 6.763063e-05
1.808013e-05 5.3099277e-05 1.322238e-06 0.00010044564 4.0842908e-05 0.0002351017 8.0883565e-06 0.0005854407
6.972457e-06 1.6333992e-05 5.0780307e-07 2.4794823e-05 1.8034466e-07 3.0944366e-07 3.2871528e-09 2.1830348e-07
1.4029912e-06 3.252842e-06 1.0161958e-07 5.8255837e-06 1.5206184e-05 4.4883174e-05 1.0754045e-06 6.819079e-05
2.3469024e-06 8.145439e-06 1.6087175e-07 1.1391701e-05 1.49412135e-05 3.788129e-05 9.854997e-07 5.2504955e-05
6.2919958e-06 3.264753e-05 8.499448e-07 6.707341e-05 1.3241829e-05 3.7266334e-05 9.0874806e-07 4.924954e-05
1.219027e-05 3.8617196e-05 9.592153e-07 6.187008e-05 4.205369e-05 0.00010565537 1.6945406e-06 0.00010936482
1.5559634e-05 3.0367026e-05 5.526178e-07 2.9238168e-05 8.231546e-06 2.6403945e-05 5.451776e-07 3.0301124e-05
1.1138624e-05 3.111535e-05 7.672143e-07 4.829566e-05 6.981922e-05 0.00087164703 3.108456e-05 0.0023676623
1.7539703e-06 6.016856e-06 1.6613419e-07 9.348196e-06 4.4129383e-06 2.0873422e-05 3.162908e-07 2.2942766e-05
1.1103831e-05 3.210761e-05 7.9436137e-07 4.917739e-05 8.461568e-07 4.302969e-06 7.980914e-08 5.55084e-06
2.322743e-06 5.929844e-06 9.3207774e-08 5.7263205e-06 1.3944976e-05 4.8771686e-05 1.0992298e-06 7.7235476e-05
9.088844e-06 2.3057832e-05 7.207668e-07 3.7945087e-05 2.3912362e-05 0.000148649 3.724281e-06 0.00029787404
1.177268e-06 6.8513473e-06 1.3636652e-07 9.510101e-06 6.130346e-06 3.275706e-05 6.3621167e-07 4.6895144e-05
2.2008232e-06 7.361256e-05 1.318319e-06 0.00012327732 1.3721235e-06 7.0002516e-06 1.07302306e-07 7.166844e-06
9.728868e-06 6.644629e-05 1.2954333e-06 9.8517354e-05 7.144327e-07 1.8502352e-06 3.816964e-08 2.8672941e-06
4.511005e-05 0.00039553412 1.24675325e-05 0.0009911268 5.917616e-06 1.3378144e-05 4.0449507e-07 1.7627972e-05
4.1225332e-05 0.00012879392 1.8568304e-06 0.00016741769 2.068643e-05 5.2503892e-05 1.1698054e-06 6.3284984e-05
0.0 0.0 0.0 0.0 6.54934e-06 1.9358042e-05 7.132086e-07 3.599838e-05
1.4215268e-05 4.6698966e-05 1.1963947e-06 7.4658274e-05 3.981625e-05 0.00037843478 1.6917189e-05 0.000979104
2.5443135e-06 2.4099897e-06 2.2134005e-08 1.3077499e-06 5.587627e-06 1.2083706e-05 3.8425202e-07 1.6594353e-05
1.33212125e-05 5.9382608e-05 1.5826815e-06 0.00010577593 7.4609206e-06 2.3455646e-05 5.309354e-07 3.547784e-05
1.913969e-05 5.7919504e-05 1.3373333e-06 8.729506e-05 1.3563303e-05 4.1754247e-05 9.4137556e-07 6.2646584e-05
8.475826e-05 0.00018290765 3.223692e-06 0.0002478413 1.6858517e-06 1.6898504e-05 5.0550784e-07 3.440238e-05
1.366879e-05 4.764803e-05 1.044523e-06 7.397352e-05 1.7953025e-05 5.642803e-05 1.2371073e-06 8.428887e-05
7.378853e-06 1.5434642e-05 2.7712392e-07 1.44677215e-05 1.0298418e-05 9.607616e-06 9.312499e-08 4.0701257e-06
00000000: 368b a135 1570 4636 7d00 3e33 8bc6 2a36
00000010: fbeb 0200 2cd2 be00 2bae 0100 83b7 0801
00000020: 7052 c537 37d2 9738 aa32 dc35 9750 e438
00000030: 3afa 1c37 150e a438 18fe ef35 ecef 1939
00000040: 64d5 3c37 dabf 0838 42b7 5735 6f38 5138
00000050: 32b5 3637 c1b3 6038 f4b5 a035 9fd4 bb38
00000060: 5bdb 9937 16be 7538 fd72 a535 a813 b638
00000070: e4e0 8637 7dfb 6e38 6604 9935 2eb2 b638
00000080: d59e e937 36ed 9538 52b7 d435 4aee b938
00000090: 32a7 b236 bdf5 4838 43bc a035 e27d c438
000000a0: 54af 9c36 7cba 9237 6e2a 0c35 d7aa c737
000000b0: b7dd a335 2108 d535 cb06 cb32 5529 b133
000000c0: 922b 5738 1ee9 6d3a 79a1 3038 bb45 303b
000000d0: ba09 6037 12a9 2938 6de4 8235 ebd4 8d38
000000e0: c9aa 9737 eab6 5e38 c077 b135 58a6 d238
000000f0: bd4e 2b38 a285 7639 3ab3 0737 4378 193a
00000100: f3f4 e936 fb04 8937 f64f 0835 7afe cf37
00000110: c3a4 4134 9d21 a634 34e4 6131 ce66 6a34
00000120: 694e bc35 664b 5a36 f439 da33 6279 c336
00000130: 101e 7f37 f140 3c38 9e56 9035 a701 8f38
00000140: 7a7f 1d36 65a8 0837 17bc 2c34 fc1e 3f37
00000150: 06ac 7a37 bae2 1e38 8345 8435 c438 5c38
00000160: d51f d336 05ef 0838 c327 6435 c3a9 8c38
00000170: 3929 5e37 6c4e 1c38 b1f0 7335 4a91 4e38
00000180: d084 4c37 e6f8 2138 63be 8035 3fc0 8138
00000190: ce62 3038 4b93 dd38 f96f e335 ca5a e538
000001a0: 0f86 8237 b1bc fe37 9b57 1435 7d44 f537
000001b0: 391a 0a37 0a7e dd37 5258 1235 2b2f fe37
000001c0: 07e0 3a37 da81 0238 91f2 4d35 1291 4a38
000001d0: e96b 9238 3e7f 643a cb60 0238 c82a 1b3b
000001e0: f669 eb35 66e4 c936 9e62 3234 32d6 1c37
000001f0: da12 9436 5519 af37 adce a934 3775 c037
00000200: 974a 3a37 49ab 0638 193c 5535 d243 4e38
00000210: 7423 6335 3962 9036 8a63 ab33 5a41 ba36
00000220: 6ce0 1b36 f9f8 c636 8429 c833 b824 c036
00000230: 37f5 6937 3390 4c38 4089 9335 7bf9 a138
00000240: 4a7c 1837 516c c137 b87a 4135 3a27 1f38
00000250: 6897 c837 a9de 1b39 a9ee 7936 fa2b 9c39
00000260: 9f02 9e35 a0e4 e536 256c 1234 938d 1f37
00000270: 45b3 cd36 a064 0938 22c8 2a35 47b1 4438
00000280: dbb1 1336 7160 9a38 19f1 b035 0144 0139
00000290: ce29 b835 b4e3 ea36 116e e633 b97a f036
000002a0: 2b39 2337 1559 8b38 c0de ad35 1a9b ce38
000002b0: 71c7 3f35 9955 f835 f7ef 2333 bd6b 4036
000002c0: 8c34 3d38 b15f cf39 a52b 5137 b2e8 813a
000002d0: ef8f c636 b172 6037 6129 d934 c8df 9337
000002e0: 5de9 2c38 db0c 0739 3538 f935 d88c 2f39
000002f0: c587 ad37 a037 5c38 3502 9d35 deb7 8438
00000300: 0000 0000 0000 0000 0000 0000 0000 0000
00000310: 67c2 db36 1463 a237 5273 3f35 f7fc 1638
00000320: 1c7e 6e37 a2de 4338 cf93 a035 db91 9c38
00000330: 5f00 2738 a868 c639 63e9 8d37 4755 803a
00000340: f9be 2a36 4fbb 2136 3121 be32 f285 af35
00000350: 5a7d bb36 1fbb 4a37 324b ce34 1a34 8b37
00000360: 2c7e 5f37 9711 7938 866c d435 05d4 dd38
00000370: d258 fa36 9ec2 c437 9a85 0e35 0ace 1438
00000380: 2c8e a037 98ee 7238 6c7e b335 2e12 b738
00000390: f18d 6337 4821 2f38 d6b2 7c35 2161 8338
000003a0: 3fc0 b138 e6ca 3f39 9b56 5836 b2f0 8139
000003b0: 6c45 e235 43c1 8d37 3cb2 0735 464b 1038
000003c0: 0253 6537 afd9 4738 8931 8c35 3b22 9b38
000003d0: d499 9637 23ad 6c38 af0a a635 3ec4 b038
000003e0: dd97 f736 a479 8137 9fc7 9434 64ba 7237
000003f0: 5ec7 2c37 6630 2137 01fc c733 1d92 8836

exp_avg f4 [128]
-0.00031242642 6e-45 0.0018568925 0.0024954812 0.0010169392 0.002145848 0.0020770982 0.0023154088
0.001570729 0.0018226648 0.000976793 -0.00014906572 -0.0047216183 0.0021728785 -0.0027575993 -0.0055077025
0.00021189297 -4.434275e-05 0.00031231766 0.0012890473 -7.958913e-05 0.0013312548 0.001880485 0.0015646905
0.0012438509 -0.0022225378 -0.000954598 0.0007576383 0.002099509 -0.008310542 -0.0008020634 -0.00052422605
0.0009988184 -0.00026859704 -0.00054637244 0.0017550542 0.00096947287 -0.006408494 -0.00028472554 -0.0013421768
0.0009643997 -0.000106399566 -0.0025268383 0.00026958925 -0.006262106 3.891465e-06 -0.0013678242 0.0013182729
0.0 0.0007793923 0.0013203898 0.0017634919 -0.00029838114 -2.634376e-05 0.0018568108 0.0010743809
0.0015930608 0.0014186229 -0.0016913621 0.00055816484 0.0017118927 0.0017341174 -0.000630688 -0.00038116757
0.0022766655 0.0 0.0010810458 0.000556961 0.0019439221 0.0032149695 -0.00025830578 0.002671191
0.0011111089 0.0012962649 0.00085072714 0.001579164 0.0020766577 0.0020036502 0.001603329 0.0012133487
-0.006045353 0.0015059155 -0.0015529298 0.0014561567 0.0005213597 0.0011384597 -0.0005951448 0.0009806511
0.0009616162 0.0022454814 -0.0033117877 -7.2773815e-05 -0.0015007828 0.0018948581 -0.0012643466 0.00017826834
0.0018924086 0.0008343123 6e-45 -5.0388328e-05 -0.0003815936 -0.0022429312 0.0013350591 6e-45
0.0010105041 0.0013893959 0.0020227502 0.002058295 -0.00048132794 -0.0002157237 0.0024985524 0.0016353576
-0.00019220328 0.00030637096 0.0021868097 -0.0027516105 0.00028997243 0.00027031908 0.0024267945 0.0018579442
-0.0031845553 -0.00027580318 0.003205448 0.00197595 0.0015794577 0.0013584838 0.0004201642 0.00038452496
00000000: 2acd a3b9 0400 0000 f962 f33a 3a8b 233b
00000010: d14a 853a 5ba1 0c3b ed1f 083b 1dbe 173b
00000020: ebe0 cd3a 7be6 ee3a bc07 803a 864e 1cb9
00000030: ceb7 9abb da66 0e3b d7b8 34bb f579 b4bb
00000040: 962f 5e39 aafc 39b8 91be a339 40f5 a83a
00000050: 17e9 a6b8 807d ae3a 9b7a f63a 4d16 cd3a
00000060: b608 a33a ffa7 11bb fd3d 7aba 3f9c 463a
00000070: ea97 093b f128 08bc 9041 52ba 376c 09ba
00000080: c9ea 823a 7cd2 8cb9 6f3a 0fba d909 e63a
00000090: 3924 7e3a 58fe d1bb 3747 95b9 fbeb afba
000000a0: c5cf 7c3a d522 dfb8 5099 25bb a857 8d39
000000b0: 5a32 cdbb 6e93 8236 9048 b3ba e6c9 ac3a
000000c0: 0000 0000 2250 4c3a ee10 ad3a f824 e73a
000000d0: 0a70 9cb9 cbfc dcb7 3b60 f33a 3ed2 8c3a
000000e0: 40ce d03a 16f1 b93a b2b0 ddba cf51 123a
000000f0: 9661 e03a 534b e33a c154 25ba 72d7 c7b9
00000100: 1c34 153b 0000 0000 e1b1 8d3a 0501 123a
00000110: 34cb fe3a 3db2 523b 376d 87b9 260f 2f3b
00000120: a1a2 913a 6fe7 a93a 5503 5f3a f3fb ce3a
00000130: 8918 083b ac4f 033b cb26 d23a 3a09 9f3a
00000140: 1918 c6bb 2462 c53a ad8b cbba 83dc be3a
00000150: dbab 083a 5e38 953a 7e03 1cba 3189 803a
00000160: f914 7c3a ed28 133b 940a 59bb 259e 98b8
00000170: eab5 c4ba e35c f83a 6fb8 a5ba 8bed 3a39
00000180: b20a f83a c0b5 5a3a 0400 0000 0e58 53b8
00000190: a010 c8b9 24fe 12bb 26fd ae3a 0400 0000
000001a0: e472 843a 641c b63a 1e90 043b 76e4 063b
000001b0: be5a fcb9 e433 62b9 c1be 233b 7f59 d63a
000001c0: 2d8a 49b9 6aa0 a039 9450 0f3b 5d54 34bb
000001d0: 7107 9839 9db9 8d39 db0a 1f3b 4386 f33a
000001e0: f9b3 50bb ad99 90b9 7e12 523b f17e 013b
000001f0: ce05 cf3a 270f b23a 7c49 dc39 119a c939
