hw7/RL/cartpole_a2c/9999.pth (torch_old, 23299 bytes, 21 tensors)

fc1.weight f4 [128, 4]
-0.44229448 0.3070956 0.3039076 0.48744494 0.027765278 0.055774536 -0.47659853 -0.44709966
-0.30022916 0.040402375 0.7358393 0.44312495 -0.23850493 0.31580418 -0.008676294 -0.46701452
0.04060696 0.019069152 -0.31037006 -0.4567376 -0.4445798 0.4292831 0.38147035 0.3449741
-0.13798928 -0.5551526 -0.488585 -0.32880262 0.07908806 0.17686476 -0.25387877 -0.38107306
-0.40029886 -0.18363293 0.37301767 0.22059321 -0.12500453 0.47455183 -0.62336475 -0.40424618
0.41524008 -0.19052993 -0.6891828 0.17690553 0.11981851 -0.20377845 0.40013677 -0.16058242
-0.21116197 0.10736869 -0.59187305 -0.545544 -0.24708778 -0.10325479 -0.29636285 0.06619416
0.3044856 -0.27107286 0.5181625 0.60568976 -0.067625895 -0.1482041 -0.291751 0.2412806
-0.23709823 0.02014377 -0.24893053 -0.34053463 -0.17350104 -0.01805884 -0.56378067 -0.27651954
0.46513975 -0.38145852 0.049182493 0.0069896723 -0.1928619 0.39249396 -0.5928579 -0.55419385
-0.26905644 -0.2044139 -0.41043812 -0.4544296 -0.17938605 -0.47960383 -0.3816039 0.36727887
0.09538178 -0.3765709 -0.20559204 0.39242017 0.0911067 0.19514689 -0.35271093 0.15523179
-0.4033716 -0.052408308 0.36319467 0.46531034 0.29320028 0.14347759 0.43232575 -0.24529232
0.15335429 0.32411847 -0.049333565 0.54687977 -0.11654903 0.21783072 -0.056068726 0.1309523
-0.467707 -0.16407163 -0.14615326 0.2726386 0.21362592 -0.27929896 -0.20988123 -0.4037797
-0.08112327 -0.13816643 0.53733325 0.32704887 0.12876758 -0.10751447 0.10928962 -0.51940036
-0.019113118 -0.33823413 -0.7256642 -0.23622653 0.33021972 0.30077618 -0.25539657 -0.08671102
-0.23852986 0.45857322 -0.04136501 -0.07193053 -0.015254041 0.44267234 0.18470822 0.50273365
-0.4218409 0.21705772 0.20480129 0.5443422 -0.012497086 -0.03721485 -0.29931006 -0.539627
0.08141246 0.28638557 0.39180762 -0.2160878 -0.46243864 -0.26284766 0.5738459 0.5247013
-0.4050223 -0.46908757 0.6087887 0.45648357 0.5108866 -0.23475486 0.14055485 0.44326112
0.33370247 -0.37198532 0.17622596 -0.49924988 -0.24814044 0.18430743 0.4425674 -0.013592569
0.26289585 0.4174359 -0.2063882 -0.13035478 -0.28579432 -0.26201344 -0.31773672 0.2977634
-0.033360057 -0.4388659 -0.30355835 -0.20434092 0.40457457 -0.10533693 -0.2722247 0.13477212
-0.4149899 -0.18394661 0.017767271 -0.13267548 0.04055769 -0.43272558 -0.31898236 -0.539903
-0.027895218 0.44864222 0.4685279 -0.087177224 0.3824545 0.25739992 -0.39810395 -0.56820273
-0.027663799 -0.018966634 0.51555705 0.41343388 -0.13413246 -0.3892464 0.57740086 0.020686973
-0.14284064 -0.4814775 -0.5474124 -0.50686026 -0.4586392 -0.25946903 0.29913035 0.55209607
-0.19834998 0.45827222 0.20982522 -0.21824259 0.11940312 0.4911401 0.36028975 0.13719146
0.450282 0.020764822 0.3698322 0.5769496 0.2445303 -0.30695873 -0.6962686 -0.27782837
-0.31788594 -0.43950015 0.024724998 0.30818835 -0.046539623 -0.24304248 -0.14159878 0.28879502
0.3334771 -0.5373123 -0.14126633 -0.3354561 -0.30385432 0.3804175 -0.23547055 0.2211089
00000000: 6c74 e2be a23b 9d3e c799 9b3e 6292 f93e
00000010: 0274 e33c d773 643d b904 f4be 3fea e4be
00000020: a3b7 99be f67c 253d f75f 3c3f 46e1 e23e
00000030: a33a 74be 16b1 a13e 0427 0ebc 871c efbe
00000040: 7c53 263d e936 9c3c d3e8 9ebe 83d9 e9be
00000050: f79f e3be ffca db3e 1550 c33e 72a0 b03e
00000060: 104d 0dbe 7b1e 0ebf d027 fabe d158 a8be
00000070: ecf8 a13d 091c 353e 66fc 81be 021c c3be
00000080: f9f3 ccbe 450a 3cbe 2cfc be3e 30e3 613e
00000090: 3001 00be 75f8 f23e d594 1fbf 5bf9 cebe
000000a0: 599a d43e 471a 43be 496e 30bf b926 353e
000000b0: 6863 f53d 4cab 50be bade cc3e b86f 24be
000000c0: d83a 58be 1ee4 db3d fe84 17bf c6a8 0bbf
000000d0: 9404 7dbe 3f77 d3bd dfbc 97be ce90 873d
000000e0: 89e5 9b3e 10ca 8abe 4ca6 043f 7c0e 1b3f
000000f0: 727f 8abd d1c2 17be 6360 95be 4312 773e
00000100: e1c9 72be 8c04 a53c a5e7 7ebe 8e5a aebe
00000110: 42aa 31be 22f0 93bc ee53 10bf f893 8dbe
00000120: cc26 ee3e 884e c3be 9573 493d 9f09 e53b
00000130: 977d 45be f8f4 c83e 89c5 17bf a6df 0dbf
00000140: c4c1 89be e151 51be f224 d2be ffaa e8be
00000150: fab0 37be a28e f5be 9661 c3be fa0b bc3e
00000160: 8657 c33d e7cd c0be b886 52be 4ceb c83e
00000170: 2696 ba3d 96d4 473e 8796 b4be 15f5 1e3e
00000180: b986 cebe 18aa 56bd a7f4 b93e 283d ee3e
00000190: 591e 963e caeb 123e cd59 dd3e e92d 7bbe
000001a0: e808 1d3e dbf2 a53e fe11 4abd 5000 0c3f
000001b0: 42b1 eebd 040f 5f3e 52a8 65bd 5c18 063e
000001c0: 4b77 efbe 6502 28be 33a9 15be 4997 8b3e
000001d0: c1c0 5a3e 4600 8fbe 1beb 56be 36bc cebe
000001e0: f523 a6bd 807b 0dbe ac8e 093f f372 a73e
000001f0: a6db 033e 8c30 dcbd 3cd3 df3d 6cf7 04bf
00000200: 1d93 9cbc 062d adbe 21c5 39bf 5ee5 71be
00000210: 8f12 a93e 56ff 993e 57c3 82be 8c95 b1bd
00000220: 2c41 74be 1cca ea3e 5b6e 29bd 5050 93bd
00000230: 16ec 79bc f3a5 e23e 2724 3d3e 27b3 003f
00000240: 88fb d7be 6144 5e3e 6eb7 513e 035a 0b3f
00000250: 94c0 4cbc 996e 18bd 2b3f 99be ff24 0abf
00000260: 93bb a63d 21a1 923e 029b c83e 1f46 5dbe
00000270: c2c4 ecbe f893 86be 91e7 123f d352 063f
00000280: 155f cfbe 3f2c f0be 94d9 1b3f 37b8 e93e
00000290: 77c9 023f 9463 70be 9ced 0f3e 1ff3 e23e
000002a0: 0ddb aa3e dc74 bebe 9474 343e ae9d ffbe
000002b0: 8718 7ebe 16bb 3c3e 3298 e23e 5eb3 5ebc
000002c0: 499a 863e 29ba d53e 6e57 53be b97b 05be
000002d0: a253 92be a026 86be 63ae a2be 7274 983e
000002e0: 8ea4 08bd 08b3 e0be 006c 9bbe bf3e 51be
000002f0: 6624 cf3e e3ba d7bd 0961 8bbe b401 0a3e
00000300: 8e79 d4be 805c 3cbe ab8c 913c 15dc 07be
00000310: d21f 263d 358e ddbe a851 a3be 1537 0abf
00000320: 8384 e4bc 6fb4 e53e e4e2 ef3e f989 b2bd
00000330: 14d1 c33e ecc9 833e 48d4 cbbe bc75 11bf
00000340: 319f e2bc ea5f 9bbc 8cfb 033f 9bad d33e
00000350: 055a 09be 4e4b c7be 8bd0 133f ba77 a93c
00000360: d144 12be 3884 f6be 3823 0cbf 98c1 01bf
00000370: c2d2 eabe 20d9 84be 9d27 993e 2b56 0d3f
00000380: 421c 4bbe a8a2 ea3e 6cdc 563e fc7a 5fbe
00000390: 9f89 f43d b776 fb3e e677 b83e eb7b 0c3e
000003a0: 5d8b e63e fd1a aa3c a55a bd3e f8b2 133f
000003b0: 2766 7a3e b229 9dbe a93e 32bf 853f 8ebe
000003c0: f2c1 a2be 2a06 e1be 148c ca3c ddca 9d3e
000003d0: 55a0 3ebd 21e0 78be 45ff 10be f1dc 933e
000003e0: 83bd aa3e 4d8d 09bf 1fa8 10be e7c0 abbe
000003f0: cb92 9bbe 15c6 c23e 311f 71be 5f6a 623e

fc1.bias f4 [128]
0.4126406 0.19187403 0.25071833 -0.21132159 0.07339097 0.13146438 0.2186704 0.15567556
0.41808856 -0.09886996 0.13268936 -0.30912447 0.41614565 0.25582296 0.3843501 -0.16419545
-0.330939 0.47790122 -0.09744338 -0.35785255 0.13126291 0.16181277 -0.44213948 0.4596945
0.28299657 -0.22562309 0.16140069 0.4552603 -0.51029843 0.12460584 -0.0576344 0.03338348
0.21952172 0.10299182 0.26502421 0.1387032 0.22694829 -0.016373528 0.39440027 0.029485073
-0.32720593 -0.352289 0.031467576 0.45009515 0.14909692 0.18288352 0.071839124 -0.20296755
0.43156824 -0.016435126 -0.26900673 -0.0636318 -0.03280698 0.4807862 0.4395858 0.41362306
0.49389413 0.37285718 -0.033359885 0.2161729 -0.5010519 0.49172774 0.024207266 -0.12103751
-0.16493551 -0.49078292 -0.47139367 -0.28382286 0.121328145 -0.15823747 0.30885231 -0.15861467
-0.40901116 -0.1484048 -0.29520962 -0.24159802 0.33415076 0.44486287 0.14518027 -0.22837706
-0.19940858 -0.081050225 0.4464409 -0.02883372 0.45779562 0.14032453 0.2741155 0.39055574
0.028875297 0.38035163 0.2574224 -0.032841466 -0.23092064 0.13004242 0.41507336 -0.2705972
0.33738706 0.11715269 0.42663005 0.35843682 0.45505115 -0.06082822 -0.2781352 0.25956854
0.46621135 -0.259964 -0.30458662 0.1556535 0.10232293 0.2848982 -0.44653487 0.18052444
-0.34892634 -0.099610515 0.0006298484 -0.16705966 0.45488176 -0.04283035 -0.13418104 -0.4644273
-0.25636828 0.0739452 -0.44929132 -0.15803155 -0.1669302 -0.37471142 -0.19780993 5.0980932e-05
00000000: a145 d33e a07a 443e 275e 803e b064 58be
00000010: 014e 963d 999e 063e 22eb 5f3e 6a69 1f3e
00000020: b40f d63e 557c cabd b8df 073e 9045 9ebe
00000030: 0b11 d53e 3afb 823e 89c9 c43e da22 28be
00000040: d670 a9be 78af f43e 6590 c7bd 7338 b7be
00000050: c969 063e 3fb2 253e 1b60 e2be 145d eb3e
00000060: ede4 903e bd09 67be 3946 253e e117 e93e
00000070: eba2 02bf 5931 ff3d 0c12 6cbd 1ebd 083d
00000080: 4dca 603e 60ed d23d 41b1 873e 3608 0e3e
00000090: 2265 683e c721 86bc d5ee c93e ae8a f13c
000000a0: 8987 a7be 395f b4be 25e4 003d df72 e63e
000000b0: ddac 183e d145 3b3e 6420 933d bad6 4fbe
000000c0: 83f6 dc3e f5a2 86bc 40bb 89be 6451 82bd
000000d0: 9d60 06bd 9c29 f63e 6411 e13e 67c6 d33e
000000e0: b1df fc3e 23e7 be3e 60a4 08bd 6e5c 5d3e
000000f0: f044 00bf bdc3 fb3e 514e c63c 84e2 f7bd
00000100: dbe4 28be e647 fbbe 835a f1be 3b51 91be
00000110: e47a f83d 0109 22be e421 9e3e e26b 22be
00000120: e969 d1be 6ef7 17be b725 97be 7965 77be
00000130: cf15 ab3e 11c5 e33e 23aa 143e addb 69be
00000140: c331 4cbe a9fd a5bd e793 e43e b234 ecbc
00000150: 3064 ea3e 3cb1 0f3e de58 8c3e ecf6 c73e
00000160: e38b ec3c 73bd c23e decc 833e c684 06bd
00000170: 7676 6cbe d729 053e 7f84 d43e b78b 8abe
00000180: ffbd ac3e c0ed ef3d 416f da3e 0885 b73e
00000190: 77fc e83e 0327 79bd bd67 8ebe 2be6 843e
000001a0: 41b3 ee3e 001a 85be c7f2 9bbe a263 1f3e
000001b0: af8e d13d 2dde 913e 38a0 e4be 66db 383e
000001c0: 79a6 b2be 9900 ccbd 691c 253a b011 2bbe
000001d0: 43e6 e83e e16e 2fbd c166 09be 6ac9 edbe
000001e0: b442 83be 9570 973d 8309 e6be 06d3 21be
000001f0: c0ef 2abe 2dda bfbe b08e 4abe 5cd4 5538

fc2.weight f4 [2, 128]
-0.09841734 0.15325803 -0.17101243 0.16464418 0.04758425 -0.15531301 0.070135765 0.008445812
-0.0186308 0.15961431 0.01642046 -0.0686469 -0.013798184 0.053044654 -0.10264316 -0.015765065
0.0042343093 0.10755556 -0.03490641 0.14485879 0.16303386 0.05929499 0.010729789 0.047889255
-0.002012781 -0.0082913125 -0.1760479 -0.075608775 -0.08064382 0.08382311 -0.091524795 0.028089043
0.17985234 0.07751978 -0.03394869 -0.22193062 -0.07211603 0.1925312 -0.04655797 -0.093559675
0.01575214 -0.0634415 0.14270855 0.0025628475 0.018653808 0.036929958 0.16907473 0.028203016
-0.019909428 0.25834236 -0.04583632 0.15510927 -0.11329613 -0.017624058 0.0071930923 0.038121153
-0.03029788 -0.00063133455 -0.14933203 0.11487491 -0.108642794 -0.022036018 0.07813554 -0.120478265
0.08834375 -0.0154712945 0.003842833 0.0060089 0.06684066 0.008819442 -0.10143323 0.121896155
-0.010396904 -0.09136543 0.085719146 0.10046737 0.10656278 -0.13646781 -0.14491165 0.013159341
0.15966465 0.01831228 -0.050766982 -0.056994837 0.037200384 0.10687824 0.13519798 0.115575366
-0.2614578 -0.122104436 -0.091809 -0.061178125 0.05577259 0.04130696 -0.021594504 -0.07657837
-0.010701895 -0.09970213 -0.036010828 -0.024199024 -0.05427338 0.051869933 0.007234239 0.010670828
0.052561447 -0.013166436 0.10809003 0.1509097 -0.014308401 -0.11247387 -0.050847307 -0.058933984
-0.08909089 0.074031554 -0.26937318 -0.113168925 -0.0842233 0.041833915 0.0909974 -0.032440178
-0.004365445 -0.12622188 -0.020106468 0.08389442 -0.034162335 -0.060483437 0.014142358 0.17172848
0.111045964 -0.034623884 0.10201992 -0.05713716 -0.16848764 0.25054312 -0.13048437 -0.0025578965
0.096822955 -0.07273019 -0.0845736 0.05937592 -0.119299166 0.030951422 0.03154607 -0.03032064
-0.016521899 -0.03952463 -0.08574006 -0.116442315 -0.09233414 -0.08474098 -0.0051502483 0.054970913
0.073126175 -0.03338255 0.12251186 -0.05269143 -0.04555273 -0.09645913 0.05598857 -0.12345692
-0.1547332 -0.051673796 0.00926786 0.1423814 0.19031928 -0.2046236 0.05482251 0.11777399
0.12746453 0.06993581 -0.19665466 0.053812575 -0.03532046 0.024148718 -0.060996596 0.062353108
-0.023020467 -0.15743265 -0.016652418 -0.053985015 0.03600346 0.012188933 -0.16921414 0.10040944
-0.049174145 0.08464831 0.11284413 -0.14513518 0.09607249 0.058061313 -0.20721439 0.074215256
0.05171037 -0.049956784 0.005943499 0.055703968 0.017495288 -0.11489853 0.10085424 -0.041142248
0.020305078 0.12843078 -0.08444863 -0.034363642 -0.11496622 0.10431103 0.12128466 -0.00999472
-0.11497984 -0.10020681 0.045342237 -0.050358422 0.0445778 -0.036184095 -0.09530259 -0.12525696
0.12724602 0.011934263 0.07588717 0.13098617 -0.13974687 -0.07886111 0.08099268 0.05754265
0.07466644 0.039108757 0.098774195 0.02156989 0.06143009 -0.030622957 -0.021063702 0.023230119
-0.035752784 -0.02488064 -0.099992454 -0.08868026 -0.013338875 0.2149081 -0.06528116 -0.06444844
-0.00348443 -0.073229276 0.23287134 0.094510466 -0.012522956 -0.07156737 0.025138695 0.043876976
-0.124100566 0.16561358 0.060931623 -0.06790998 -0.08512737 -0.023248164 -0.05774561 -0.13449438
00000000: 088f c9bd acef 1c3e e21d 2fbe 7c98 283e
00000010: b4e7 423d 600a 1fbe 57a3 8f3d 4e60 0a3c
00000020: 9f9f 98bc ef71 233e 3384 863c bf96 8cbd
00000030: c711 62bc 5a45 593d 9436 d2bd bd25 81bc
00000040: f6bf 8a3b 1746 dc3d 06fa 0ebd dd55 143e
00000050: 59f2 263e 4edf 723d ffcb 2f3c 8627 443d
00000060: dde8 03bb 49d8 07bc e745 34be c6d8 9abd
00000070: 9628 a5bd 73ab ab3d 5a71 bbbd fe1a e63c
00000080: 362b 383e b1c2 9e3d c80d 0bbd c841 63be
00000090: 92b1 93bd e626 453e 92b3 3ebd 379c bfbd
000000a0: a20a 813c 9eed 81bd 3122 123e 72f5 273b
000000b0: dfcf 983c de43 173d ed21 2d3e 030a e73c
000000c0: 1919 a3bc 7345 843e ddbe 3bbd f7d4 1e3e
000000d0: cd07 e8bd 5460 90bc 08b4 eb3b ed24 1c3d
000000e0: 4233 f8bc 2580 25ba 7fea 18be 8943 eb3d
000000f0: 1d80 debd e184 b4bc 8705 a03d 4fbd f6bd
00000100: 91ed b43d 507b 7dbc 0ad8 7b3b 4ee6 c43b
00000110: c2e3 883d 6c7f 103c 3abc cfbd b1a4 f93d
00000120: c757 2abc cc1d bbbd 858d af3d d6c1 cd3d
00000130: 963d da3d 38be 0bbe b863 14be 479a 573c
00000140: 217f 233e a203 963c 0af1 4fbd 6b73 69bd
00000150: 6e5f 183d fbe2 da3d 5771 0a3e c7b2 ec3d
00000160: ccdd 85be e411 fabd 5b06 bcbd ea95 7abd
00000170: cd71 643d 7d31 293d f5e6 b0bc 1fd5 9cbd
00000180: 0057 2fbc a130 ccbd 1780 13bd 083d c6bc
00000190: c44d 5ebd 9175 543d 320d ed3b b2d4 2e3c
000001a0: ac4a 573d 09b8 57bc 4e5e dd3d 1388 1a3e
000001b0: c96d 6abc b358 e6bd 4445 50bd c364 71bd
000001c0: 4975 b6bd db9d 973d 48eb 89be 1cc5 e7bd
000001d0: 447d acbd 0a5a 2b3d d85c ba3d fedf 04bd
000001e0: 020c 8fbb 4f40 01be 52b6 a4bc d6d0 ab3d
000001f0: ceed 0bbd 7bbd 77bd 59b5 673c 97d9 2f3e
00000200: 116c e33d c6d1 0dbd d2ef d03d a808 6abd
00000210: 0688 2cbe 3047 803e b29d 05be 62a2 27bb
00000220: 1d4b c63d 91f3 94bd ec34 adbd 2a34 733d
00000230: 1f53 f4bd d68d fd3c 7436 013d fe62 f8bc
00000240: ef58 87bc 94e4 21bd 7c98 afbd 4f79 eebd
00000250: ae19 bdbd ae8c adbd 6ac3 a8bb 2e29 613d
00000260: 2dc3 953d 24bc 08bd 80e7 fa3d f8d2 57bd
00000270: 8095 3abd 5d8c c5bd 4554 653d fbd6 fcbd
00000280: 6172 1ebe e7a7 53bd 39d8 173c 6ecc 113e
00000290: 0fe3 423e d988 51be 918d 603d 7d33 f13d
000002a0: 1086 023e 823a 8f3d d75f 49be 936a 5c3d
000002b0: 30ac 10bd 88d3 c53c 91d7 79bd f965 7f3d
000002c0: 6b95 bcbc 0636 21be a76a 88bc 641f 5dbd
000002d0: 5d78 133d 17b4 473c 7946 2dbe 77a3 cd3d
000002e0: d46a 49bd 185c ad3d d31a e73d 519e 14be
000002f0: a7c1 c43d b3d1 6d3d 0230 54be 2bfe 973d
00000300: 41ce 533d 7c9f 4cbd afc1 c23b d829 643d
00000310: 4752 8f3c ec4f ebbd ab8c ce3d c684 28bd
00000320: d656 a63c 5c83 033e 67f3 acbd e4c0 0cbd
00000330: 6973 ebbd 05a1 d53d 1864 f83d e5c0 23bc
00000340: 8d7a ebbd 3a39 cdbd c8b8 393d a244 4ebd
00000350: 3697 363d c635 14bd 012e c3bd 5c43 00be
00000360: c84c 023e ed87 433c bc6a 9b3d 3d21 063e
00000370: ce19 0fbe ef81 a1bd 7ddf a53d d7b1 6b3d
00000380: b8ea 983d 8130 203d 204a ca3d 57b3 b03c
00000390: 1e9e 7b3d ffdc fabc c98d acbc 174d be3c
000003a0: 8371 12bd 7cd2 cbbc d8c8 ccbd ff9d b5bd
000003b0: 4c8b 5abc de10 5c3e 21b2 85bd 8bfd 83bd
000003c0: 095b 64bb 3bf9 95bd d375 6e3e b48e c13d
000003d0: 162d 4dbc ea91 92bd aaef cd3c 58b8 333d
000003e0: 7028 febd 9b96 293e 7093 793d 6314 8bbd
000003f0: 4257 aebd ef72 bebc a986 6cbd e5b8 09be

fc2.bias f4 [2]
-0.026981808 -0.06888571
00000000: f408 ddbc f313 8dbd

fc1.weight f4 [128, 4]
-0.62639874 0.028107177 -0.37869567 -0.2966062 0.37776294 0.7641666 0.41900644 -0.92479175
-0.41137373 0.082429215 -0.51154834 -0.46841675 -0.5108562 -0.4609303 0.30862728 -0.5804469
-0.5479549 -0.15502988 0.030381061 0.15074846 -0.19051307 0.74538213 -0.21562232 -0.16206168
-0.05198186 -0.21954149 -0.4331111 -0.38704988 -0.3830628 -0.06911036 -0.23806341 0.35991699
-0.027813053 0.83879554 -0.11742556 -0.87676984 0.19400647 -0.7292721 -0.2577209 0.7058421
-0.7770803 -0.8004341 -0.38531768 0.9202248 0.004138829 0.20099121 -0.19006835 0.06585284
-0.3280559 -0.43491235 -0.38695166 -0.50964946 -0.3678579 0.10998847 -0.33104038 0.054455277
-0.30942458 0.6931804 0.17292172 -0.7689056 -0.30799332 -0.8282548 0.06510276 0.11302075
0.36219466 -0.007867711 -0.36580133 -0.051397853 -0.12605388 0.29820415 -0.03353433 -0.08167825
0.23943678 0.45404965 0.24122825 -0.6970502 -0.27997822 -0.5551194 -0.24893647 -0.27243698
-0.1239506 -0.88194966 -0.11536166 0.95224184 -0.32739523 -0.40583783 -0.36434844 -0.115630694
-0.4521985 0.57445633 -0.13389796 -0.3147729 0.18494587 -0.3539998 0.29467434 0.42428195
0.35863099 -0.33743927 -0.4215725 0.5185447 -0.13541228 0.30054444 0.077937126 0.42746192
-0.12748092 -0.042623103 -0.51869595 -0.43335396 -0.088126436 0.2838571 -0.3290782 -0.18773812
-0.68457556 -0.65534544 0.3273984 0.32942787 0.0935084 -0.16974045 0.09245998 -0.44077778
0.06129694 0.09733717 -0.21777411 0.2547218 -0.093051806 -0.34663466 0.0848326 -0.055951994
0.17935279 0.08495265 -0.118092835 -0.010359285 0.4356583 -0.09488405 -0.32310116 0.14183919
-0.4242385 -0.19785878 -0.40079594 -0.44083196 0.14232098 0.46731892 0.25808963 -0.7327314
-0.13473637 0.46694073 -0.2315932 -0.5336735 -0.6650479 -0.29903787 -0.4070188 0.4053665
0.017015627 0.430423 0.0844043 0.10802851 0.18873043 0.18435821 0.20539615 -0.22631319
-0.6158787 -0.61995673 -0.49138322 -0.58148974 0.5397707 0.21762408 -0.34858882 -0.32067153
-0.09259794 -0.53516805 -0.19599546 -0.010617594 0.17755722 -0.07649548 0.025321148 0.08895452
-0.55978143 0.11786458 0.04293466 -0.39017427 0.024216022 0.21940303 0.0673375 -0.17456482
-0.059698924 -0.47333652 0.3166717 0.61813194 -0.49269286 0.22049768 0.24922551 -0.9537856
-0.31905103 -0.7047676 -0.023396866 0.6488867 -0.63938564 -0.7612572 0.15165092 0.87614787
0.07391805 -0.14778106 0.20114757 0.16820396 -0.45239615 -0.20889387 -0.59640366 -0.2967134
0.06404348 0.017416785 -0.01856123 0.027071107 0.07500794 0.18325669 0.11943509 -0.027834272
0.24105531 0.3513777 -0.4715888 -0.34106177 0.069512494 0.030954158 -0.33518502 -0.523514
-0.13775666 -0.04591196 -0.19028074 -0.08562111 0.10665735 -0.45443702 -0.20069613 -0.59145665
0.046269014 0.28961557 -0.3746456 0.14349459 0.32865143 -0.4577459 0.3469864 -0.36865023
-0.15951915 -0.9796324 -0.22995856 0.7218754 -0.26887292 0.24940857 -0.3243835 0.43063563
-0.18867236 0.48819464 0.31055155 -0.3224888 -0.46342576 -0.76589996 0.028563246 -0.019174486
00000000: ab5b 20bf 0641 e63c 66e4 c1be c5dc 97be
00000010: 256a c13e 6ca0 433f 0388 d63e 27bf 6cbf
00000020: 949f d2be a6d0 a83d d5f4 02bf 52d4 efbe
00000030: 79c7 02bf 0eff ebbe 6504 9e3e 2b98 14bf
00000040: c646 0cbf 27c0 1ebe b4e1 f83c ce5d 1a3e
00000050: dc15 43be 5dd1 3e3f 19cc 5cbe 7ff3 25be
00000060: eeea 54bd 7ccf 60be bdc0 ddbe 672b c6be
00000070: cf20 c4be bc89 8dbd e5c6 73be 0a47 b83e
00000080: 33d8 e3bc 4ebb 563f d07c f0bd fd73 60bf
00000090: a2a9 463e 94b1 3abf fef3 83be 11b2 343f
000000a0: bcee 46bf 40e9 4cbf 5c48 c5be da93 6b3f
000000b0: 049f 873b a4d0 4d3e 47a1 42be dbdd 863d
000000c0: f1f6 a7be d5ac debe 871e c6be 6378 02bf
000000d0: df57 bcbe a341 e13d 207e a9be 7f0c 5f3d
000000e0: e66c 9ebe 4574 313f 6412 313e ffd6 44bf
000000f0: 4db1 9dbe 8208 54bf 9954 853d 6c77 e73d
00000100: 9471 b93e 92e7 00bc 504a bbbe 8e86 52bd
00000110: 4514 01be 37ae 983e 4b5b 09bd ed46 a7bd
00000120: ea2e 753e 3279 e83e 8a04 773e e271 32bf
00000130: 4e59 8fbe 4e1c 0ebf 34e9 7ebe dc7c 8bbe
00000140: d0d9 fdbd 74c7 61bf bc42 ecbd 1fc6 733f
00000150: 59a0 a7be fac9 cfbe e18b babe c9cf ecbd
00000160: 9086 e7be 920f 133f 8c1c 09be ea29 a1be
00000170: 7362 3d3e 763f b5be 8edf 963e 7c3b d93e
00000180: 7b9e b73e d7c4 acbe 5ad8 d7be 58bf 043f
00000190: 84a9 0abe f6e0 993e 809d 9f3d 4adc da3e
000001a0: 5c8a 02be 9095 2ebd 42c9 04bf 92e0 ddbe
000001b0: a27b b4bd b855 913e f07c a8be 6c3e 40be
000001c0: 5840 2fbf b8c4 27bf c3a0 a73e c5aa a83e
000001d0: 5581 bf3d 71d0 2dbe a85b bd3d a0ad e1be
000001e0: 8012 7b3d b658 c73d 2d00 5fbe e56a 823e
000001f0: f291 bebd 197a b1be b7bc ad3d eb2d 65bd
00000200: 42a8 373e a8fb ad3d a8da f1bd feb9 29bc
00000210: 9b0e df3e 9252 c2bd 846d a5be 4b3e 113e
00000220: ca35 d9be 7e9b 4abe 2035 cdbe bab4 e1be
00000230: 97bc 113e 6d44 ef3e 5324 843e 4994 3bbf
00000240: 55f8 09be db12 ef3e c526 6dbe d49e 08bf
00000250: 9440 2abf 7e1b 99be c564 d0be 338c cf3e
00000260: 5b64 8b3c 6760 dc3e 29dc ac3d 0d3e dd3d
00000270: 8d42 413e 66c8 3c3e 5e53 523e a5be 67be
00000280: 3aaa 1dbf 7cb5 1ebf 9596 fbbe 83dc 14bf
00000290: 6a2e 0a3f d9d8 5e3e 3c7a b2be 0f2f a4be
000002a0: fda3 bdbd c600 09bf 09b3 48be 6bf5 2dbc
000002b0: 8fd1 353e aaa9 9cbd 4c6e cf3c ca2d b63d
000002c0: d64d 0fbf fc62 f13d 41dc 2f3d ecc4 c7be
000002d0: ae60 c63c 30ab 603e 3ee8 893d 1fc1 32be
000002e0: dc86 74bd 2a59 f2be cb22 a23e e53d 1e3f
000002f0: 3d42 fcbe 25ca 613e f934 7f3e 4b2b 74bf
00000300: a85a a3be a66b 34bf c9aa bfbc 701d 263f
00000310: c7ae 23bf c0e1 42bf 614a 1b3e 3a4b 603f
00000320: 5962 973d eb53 17be a1f9 4d3e a93d 2c3e
00000330: 78a0 e7be 46e8 55be e9ad 18bf d2ea 97be
00000340: 3a29 833d a5ad 8e3c b80d 98bc 3ac4 dd3c
00000350: c39d 993d a4a7 3b3e 629a f43d b304 e4bc
00000360: 34d7 763e c7e7 b33e 1674 f1be a69f aebe
00000370: 915c 8e3d 9393 fd3c 5f9d abbe 0305 06bf
00000380: 1510 0dbe 2e0e 3cbd f4d8 42be 1f5a afbd
00000390: 2b6f da3d f8ab e8be 4983 4dbe b469 17bf
000003a0: 9484 3d3d 7e48 943e 8cd1 bfbe 3ff0 123e
000003b0: 0045 a83e ac5d eabe 34a8 b13e b9bf bcbe
000003c0: fd58 23be 30c9 7abf 427a 6bbe d4cc 383f
000003d0: b6a9 89be f664 7f3e 9815 a6be 467c dc3e
000003e0: 5433 41be a6f4 f93e 9d00 9f3e 411d a5be
000003f0: 2446 edbe 0512 44bf 78fd e93c d013 9dbc

fc1.bias f4 [128]
0.9948588 0.64458185 0.96353656 0.2899606 0.825017 0.6030337 0.9218916 1.0617313
0.41670477 0.8226312 0.46383435 -0.42278782 0.9732176 -0.04700267 0.30928832 0.74818027
1.0725448 1.0644678 0.30937606 1.0083336 0.44659576 1.0802581 0.84536254 1.101582
0.94973093 0.89637035 1.0013621 1.0504262 0.16620852 -0.29856858 0.87275684 0.86656976
-0.22987963 0.65581965 1.1382563 1.1275945 0.87453824 0.92082465 0.7300673 0.9012449
0.7937449 0.6616021 0.8397555 0.8576497 1.0427749 0.36940232 0.66508275 0.5340299
0.1475098 0.05643609 0.96483207 0.9232309 0.7348887 -0.39229098 0.7960003 1.1520011
1.1071868 0.73361105 0.95067847 -0.43144396 0.67430466 0.84480506 0.6526133 0.067013085
0.14575149 0.44674832 0.75284696 0.45927134 1.033216 -0.3963805 0.1262809 0.9414415
0.84832585 0.89688027 0.85348845 0.66902936 -0.053561922 0.9266388 0.8954424 0.6916471
0.8628635 0.7875734 -0.2710219 0.39192718 1.0381607 0.49471664 0.74933416 0.76184344
0.9267373 -0.34630466 0.6536289 0.55027485 -0.10007373 0.8417403 -0.3449334 -0.04826733
0.17253573 0.21050595 1.060255 0.7927828 0.5703356 0.8448674 0.24727271 0.67167425
1.1376946 1.105944 0.32695934 0.8808626 -0.2788898 0.80469847 0.99984825 0.42938352
0.73188746 0.9810455 0.8585604 0.5519683 0.7910243 -0.3367459 1.1431432 0.357298
0.2476242 -0.37956476 1.0281771 0.037660543 1.0120486 0.48787758 0.7496578 -0.27691847
00000000: 11af 7e3f 5103 253f 55aa 763f b775 943e
00000010: 5034 533f 6b60 1a3f 1701 6c3f d0e6 873f
00000020: 545a d53e f597 523f b27b ed3e a577 d8be
00000030: ca24 793f df85 40bd 0a5b 9e3e be88 3f3f
00000040: 2649 893f 7b40 883f 8a66 9e3e 1311 813f
00000050: 33a8 e43e e645 8a3f ae69 583f a400 8d3f
00000060: 9121 733f 8778 653f a22c 803f 5e74 863f
00000070: 9132 2a3e fbdd 98be fe6c 5f3f 84d7 5d3f
00000080: 9165 6bbe cce3 273f 62b2 913f 0455 903f
00000090: bde1 5f3f 2abb 6b3f b1e5 3a3f fcb7 663f
000000a0: de32 4b3f c15e 293f 37fa 563f ee8e 5b3f
000000b0: a679 853f 4d22 bd3e dd42 2a3f 2fb6 083f
000000c0: cf0c 173e 8829 673d 3cff 763f dc58 6c3f
000000d0: aa21 3c3f 5dda c8be adc6 4b3f c674 933f
000000e0: 4cb8 8d3f efcd 3b3f aa5f 733f 39e6 dcbe
000000f0: 3b9f 2c3f 2545 583f aa11 273f 283e 893d
00000100: e13f 153e 32bc e43e 94ba 403f 9d25 eb3e
00000110: 6c40 843f 63f2 cabe c84f 013e 4f02 713f
00000120: e22b 593f f299 653f 387e 5a3f 8245 2b3f
00000130: bf63 5bbd 3338 6d3f b73b 653f c90f 313f
00000140: 9fe4 5c3f 699e 493f 62c3 8abe aeaa c83e
00000150: 73e2 843f 804b fd3e 5dd4 3f3f 2c08 433f
00000160: a83e 6d3f d84e b1be 3954 273f d0de 0c3f
00000170: 75f3 ccbd 4b7c 573f 1c9b b0be f7b3 45bd
00000180: 35ad 303e df8e 573e 70b6 873f d0f3 4a3f
00000190: 8401 123f 3b49 583f 0f35 7d3e d8f2 2b3f
000001a0: fa9f 913f 938f 8d3f 3767 a73e 3680 613f
000001b0: a5ca 8ebe b800 4e3f 0ef6 7f3f 28d8 db3e
000001c0: fa5c 3b3f cc25 7b3f 9dca 5b3f cb4d 0d3f
000001d0: 9280 4a3f f569 acbe 8452 923f c3ef b63e
000001e0: 3391 7d3e 5056 c2be 4f9b 833f f141 1a3d
000001f0: cf8a 813f 17cb f93e 93e9 3f3f 42c8 8dbe

fc2.weight f4 [1, 128]
0.5066393 0.53527814 0.54928076 0.3332171 0.6585866 0.618953 0.6445676 0.63526624
0.5534461 0.6483371 0.5980789 -0.09472152 0.632394 0.09901373 0.56694925 0.5234676
0.65824586 0.5901843 0.47183403 0.6053484 0.55553067 0.6359864 0.6263017 0.6223437
0.49357182 0.48694146 0.6211803 0.6016981 0.4415724 -0.023016775 0.5150073 0.5677711
0.0067632627 0.55653435 0.56506795 0.5685081 0.62673146 0.5288051 0.4930539 0.5097623
0.5988858 0.5841163 0.7033854 0.60783774 0.6473152 0.3700045 0.57847565 0.57213634
0.5404392 0.43941522 0.5931711 0.5214747 0.6550745 0.02102634 0.5217309 0.5917279
0.6117467 0.64575887 0.63409805 0.06971933 0.64202136 0.5292071 0.58323437 0.28459576
0.60339683 0.6388871 0.5407892 0.56016916 0.6128986 0.03145377 0.48731846 0.6127883
0.55360013 0.6466106 0.5164677 0.48291975 0.2143372 0.653547 0.625701 0.63042265
0.617408 0.62435913 0.005791106 0.4461553 0.54930836 0.5253691 0.5894784 0.5515775
0.49936643 0.16756792 0.61404014 0.6821032 0.33037975 0.5046926 0.09360037 0.23705286
0.4727501 0.2415165 0.66557515 0.6319408 0.68095535 0.5294728 0.30981842 0.531565
0.6525746 0.6186451 0.48817745 0.666032 0.017230075 0.65229744 0.55456233 0.6440276
0.656256 0.66373205 0.53157777 0.62426 0.556118 -0.051929656 0.5841166 0.56629926
0.5389325 0.08618859 0.53821504 0.17049688 0.6088245 0.67961735 0.6621978 0.09768478
00000000: 1db3 013f fd07 093f aa9d 0c3f 6f9b aa3e
00000010: 2299 283f b473 1e3f 6202 253f cfa0 223f
00000020: a5ae 0d3f 6cf9 253f b31b 193f 5bfd c1bd
00000030: 93e4 213f b6c7 ca3d 9623 113f f901 063f
00000040: cd82 283f 5116 173f 3b94 f13e 1df8 1a3f
00000050: 4237 0e3f 01d0 223f 4f55 203f eb51 1f3f
00000060: 72b5 fc3e 6450 f93e ac05 1f3f e308 1a3f
00000070: c715 e23e ad8d bcbc 85d7 033f 7259 113f
00000080: 5c9e dd3b 0979 0e3f 4ba8 103f bf89 113f
00000090: 7971 203f c55f 073f 9071 fc3e c87f 023f
000000a0: 9450 193f a588 153f 1111 343f 419b 1b3f
000000b0: 73b6 253f 3b71 bd3e fb16 143f 8777 123f
000000c0: 395a 0a3f 08fb e03e 10da 173f 5e7f 053f
000000d0: f6b2 273f 6e3f ac3c 2890 053f 7b7b 173f
000000e0: 6f9b 1c3f 7450 253f 4054 223f 02c9 8e3d
000000f0: 835b 243f 1e7a 073f d94e 153f 89b6 913e
00000100: 3778 1a3f 1b8e 233f 2971 0a3f 3f67 0f3f
00000110: ece6 1c3f abd5 003d ce81 f93e b2df 1c3f
00000120: bdb8 0d3f 4688 253f 3a37 043f 4241 f73e
00000130: 367b 5b3e db4e 273f f12d 203f 6163 213f
00000140: 730e 1e3f 00d6 1f3f 51c3 bd3b 786e e43e
00000150: 799f 0c3f 977e 063f 0ee8 163f 2f34 0d3f
00000160: f5ac ff3e ed96 2b3e bc31 1d3f 519e 2e3f
00000170: 8927 a93e 8933 013f 8db1 bf3d fcbd 723e
00000180: 4d0c f23e 1a50 773e 2263 2a3f dfc6 213f
00000190: 1753 2e3f 888b 073f 85a0 9e3e a514 083f
000001a0: 210f 273f 865f 1e3f 65f2 f93e 1381 2a3f
000001b0: 1626 8d3c f7fc 263f ccf7 0d3f fede 243f
000001c0: 6500 283f 58ea 293f 7b15 083f 81cf 1f3f
000001d0: c05d 0e3f 31b4 54bd aa88 153f fdf8 103f
000001e0: 7bf7 093f a583 b03d 76c8 093f bc96 2e3e
000001f0: ecdb 1b3f 67fb 2d3f cc85 293f f50e c83d

exp_avg f4 [128, 4]
-0.0030184644 0.00074538897 -0.0005799899 -0.0014356396 0.003942532 0.0016303968 0.00040167506 0.00046381797
-0.003896076 0.0010580019 -0.0007834501 -0.0020309216 0.0027628527 0.00022198365 0.00016815415 0.00056454533
0.0035712144 0.0015606696 0.0004437637 0.0003224694 -0.007281767 -0.0016634866 -0.0010990949 -0.00080356153
0.002755626 -0.0007601949 0.0005352688 0.0013686601 0.00019661582 9.416017e-05 2.2058988e-05 1.4263162e-05
-0.001691503 0.00040058317 -0.0003241667 -0.0007960383 0.0039694086 0.00052393816 0.000167969 0.00046449187
-0.0005352595 -0.00060600595 7.515126e-05 0.0002774976 0.0 0.0 0.0 0.0
0.0018152421 0.00015846895 0.0002085052 0.00045212888 0.00023603898 -0.00010607825 4.8476075e-05 0.00014602752
-0.00072919106 0.0005625864 -0.00027906938 -0.00048723412 -3.7187685e-05 -0.0001590741 5.573822e-06 7.801469e-05
0.00017756346 3.8506287e-06 9.661485e-06 7.0465925e-05 0.0020029799 -0.0005583604 0.00038955983 0.0010002068
-0.0002683059 -0.00039733422 3.0800173e-05 0.00015734512 0.0023873893 0.00042359877 0.00023331423 0.0006313437
0.0035799807 -0.0014122154 0.00065219123 0.0021777533 0.0021626304 -0.0009534005 0.00029608296 0.0013633338
-9.81949e-05 -0.00016950161 1.018818e-05 6.920762e-05 -0.0001347662 1.4695557e-05 -2.5007676e-05 -5.0744253e-05
-0.0011119421 0.00023936838 -0.00020104092 -0.0005142472 3.686825e-07 1.7664337e-06 -4.4056446e-07 9.162559e-07
0.0005590317 0.0012771508 -0.0003629534 -0.00046200003 -0.0003762917 6.778135e-05 -7.064922e-05 -0.00016112087
-0.00015175714 0.00014748168 -4.3968048e-05 -0.00012602538 0.0010149642 2.6377707e-05 0.00033836806 0.0004596626
0.00048518073 0.0014484257 -5.8192447e-05 -0.00086113 0.0028980295 0.0017321708 0.00031910578 0.00021063165
0.0046436912 -0.0012509484 0.0008999081 0.002286546 -0.00012007683 0.0005910579 0.00015608572 -0.0003495552
-0.0009087556 -0.00032025477 -0.000115601455 -0.0001063434 -0.0013273327 -0.00097586977 -0.00047417765 0.0010756197
-0.0038842617 0.0005480524 -0.00082994904 -0.002053047 0.0067327907 0.0026196325 0.000739849 0.00065641175
-0.0014087999 -0.00022656418 -0.0001815085 -0.0003660651 -0.003264496 0.0015219289 -0.000456614 -0.0019801285
-0.00045382106 0.00096524775 -6.951595e-05 -0.0008645298 0.00028154158 0.00046266153 2.0734815e-05 -0.0001333113
-0.00042273337 -0.0004894866 0.00035125535 0.00038948123 -0.0007798681 0.00017078986 -0.00014808949 -0.00035597323
1.7057619e-05 0.00022438205 8.813406e-05 -0.00017216345 0.00012225143 -8.639876e-05 2.1046546e-05 0.00010093141
0.003497046 -0.0014170298 0.000475564 0.002176277 -2.5707122e-06 1.0847854e-05 1.7524277e-06 -1.1316029e-05
-2.9876337e-05 -3.5205874e-05 -2.714183e-06 1.5602467e-05 0.0033305937 -0.0022321632 0.00084605906 0.0035339494
3.4797915e-05 -2.3995322e-05 -9.290124e-06 2.3670867e-05 -0.0002246862 0.00063593825 6.18465e-05 -0.00056090724
0.00042489247 0.0018728847 -5.257284e-05 -0.0008149814 -0.00046995044 8.653414e-05 -8.7900946e-05 -0.00020412622
0.0024147257 -0.00067002006 0.0004695305 0.0012026905 -0.00093691854 0.00022328198 -0.00016530146 -0.0004582055
0.0002748404 1.6151122e-05 3.3828062e-05 7.526182e-05 -0.001235015 -0.00032494607 -0.00014568916 -9.066951e-05
0.00080124236 0.0013395455 3.6276255e-05 -0.0007043756 0.0015974925 -0.0009488406 0.0007199648 0.0012970759
0.00047971547 0.0015006651 -0.0001972216 -0.0008476297 -0.001180106 0.00027520594 -0.00022635882 -0.0005542267
-0.0020102256 -0.0023704676 0.00024750005 0.0012748629 -0.0041837497 -0.0003684549 -0.00024531764 -0.0009314768
00000000: 6ed1 45bb 3566 433a 770a 18ba 122c bcba
00000010: 5b30 813b 0ab3 d53a ea97 d239 982c f339
00000020: 4f55 7fbb a7ac 8a3a 7260 4dba 3619 05bb
00000030: fa10 353b 48c4 6839 8952 3039 fffd 133a
00000040: 090b 6a3b 628f cc3a f5a8 e839 1c11 a939
00000050: e49b eebb 5909 daba 810f 90ba 1aa6 52ba
00000060: bc97 343b d147 47ba 4851 0c3a 9d64 b33a
00000070: a82a 4e39 db77 c538 510b b937 d04b 6f37
00000080: 6cb5 ddba 5d05 d239 ebf4 a9b9 3aad 50ba
00000090: d011 823b e558 093a d620 3039 0b87 f339
000000a0: a850 0cba 5fdc 1eba 879a 9d38 197d 9139
000000b0: 0000 0000 0000 0000 0000 0000 0000 0000
000000c0: 6bed ed3a af2a 2639 30a2 5a39 b60b ed39
000000d0: 3b81 7739 5476 deb8 ca52 4b38 f71e 1939
000000e0: 2f27 3fba 897a 133a 0f50 92b9 7573 ffb9
000000f0: f9f9 1bb8 21cd 26b9 c406 bb36 d19b a338
00000100: 5430 3a39 a634 8136 c317 2237 1bc7 9338
00000110: 6d44 033b ef5e 12ba d63d cc39 5f19 833a
00000120: 69ab 8cb9 4c51 d0b9 6f2f 0138 02fd 2439
00000130: bf75 1c3b 7716 de39 d0a5 7439 c280 253a
00000140: 1c9e 6a3b 161a b9ba d0f7 2a3a a3b8 0e3b
00000150: ebba 0d3b a0ed 79ba 953b 9b39 e4b1 b23a
00000160: fced cdb8 3ebc 31b9 e6ed 2a37 8f23 9138
00000170: 0750 0db9 f08c 7637 93c7 d1b7 3ad6 54b8
00000180: 96be 91ba f6fe 7a39 83ce 52b9 8cce 06ba
00000190: 56ef c534 3316 ed35 b886 ecb4 a0f4 7535
000001a0: fb8b 123a 1266 a73a c84a beb9 9838 f2b9
000001b0: 0449 c5b9 d625 8e38 8329 94b8 8ef2 28b9
000001c0: ff20 1fb9 50a5 1a39 556a 38b8 ae25 04b9
000001d0: 8c08 853a b245 dd37 fe66 b139 dffe f039
000001e0: db5f fe39 1ad9 bd3a aa13 74b8 75bd 61ba
000001f0: deec 3d3b 020a e33a a74d a739 01dd 5c39
00000200: 1b2a 983b ddf6 a3ba cfe7 6b3a e0d9 153b
00000210: c2d1 fbb8 39f1 1a3a f1aa 2339 8144 b7b9
00000220: 8e39 6eba dee7 a7b9 0f6f f2b8 ae04 dfb8
00000230: e5f9 adba 83d1 7fba 0c9b f8b9 cffb 8c3a
00000240: 198f 7ebb 2dab 0f3a f090 59ba 6a8c 06bb
00000250: be9e dc3b 24ae 2b3b 6df2 413a 0c13 2c3a
00000260: 7ba7 b8ba dc91 6db9 5153 3eb9 6dec bfb9
00000270: 28f1 55bb 767b c73a b265 efb9 0bc5 01bb
00000280: d5ee edb9 ae08 7d3a 17c9 91b8 9da1 62ba
00000290: df9b 9339 6191 f239 adef ad37 7bc9 0bb9
000002a0: 50a2 ddb9 e450 00ba b228 b839 4933 cc39
000002b0: 1070 4cba 0e16 3339 7848 1bb9 eba1 bab9
000002c0: f516 8f37 1948 6b39 9dd4 b838 c686 34b9
000002d0: 9e30 0039 fb30 b5b8 1d8d b037 23ab d338
000002e0: b22e 653b a1bb b9ba 1f55 f939 df9f 0e3b
000002f0: 8084 2cb6 2eff 3537 f534 eb35 f9d9 3db7
00000300: f29e fab7 05aa 13b8 4f25 36b6 0be2 8237
00000310: 1746 5a3b 7c49 12bb 10ca 5d3a d599 673b
00000320: faf3 1138 9049 c9b7 c7dc 1bb7 cd90 c637
00000330: be99 6bb9 18b5 263a 96b3 8138 d909 13ba
00000340: 1ac4 de39 957b f53a a881 5cb8 7aa4 55ba
00000350: ae63 f6b9 aa79 b538 7657 b8b8 b70a 56b9
00000360: 6040 1e3b 49a4 2fba 512b f639 99a3 9d3a
00000370: 8a9b 75ba cd20 6a39 c654 2db9 4d3b f0b9
00000380: 7418 9039 457c 8737 9be2 0d38 e2d5 9d38
00000390: 3ae0 a1ba 865d aab9 23c4 18b9 d325 beb8
000003a0: 770a 523a b093 af3a 5527 1838 d9a5 38ba
000003b0: f462 d13a 9dbb 78ba 05bc 3c3a a502 aa3a
000003c0: 5282 fb39 f7b1 c43a 45cd 4eb9 7733 5eba
000003d0: c9ad 9aba 8449 9039 bc5a 6db9 8649 11ba
000003e0: fdbd 03bb d959 1bbb e5c2 8139 4d19 a73a
000003f0: d617 89bb 2e2d c1b9 fa9d 80b9 5a2e 74ba

exp_avg_sq f4 [128, 4]
6.766172e-05 6.55358e-05 1.7039309e-06 2.7815355e-05 4.646284e-05 2.8238599e-05 1.0956986e-06 1.277638e-05
0.00010881662 9.694933e-05 2.7518784e-06 4.0163904e-05 3.098243e-05 1.4420464e-05 4.944069e-07 1.1337665e-05
5.2587908e-05 2.8494303e-05 1.3274496e-06 1.3965239e-05 0.0002388669 0.00017492285 4.5411416e-06 8.403312e-05
5.6348712e-05 4.8333488e-05 1.3707066e-06 2.2449338e-05 1.3192023e-07 1.5011186e-07 6.98456e-09 1.228895e-07
2.0152907e-05 1.8643936e-05 5.188471e-07 8.336219e-06 2.732393e-05 1.73711e-05 7.591161e-07 1.3657297e-05
6.528512e-06 1.2568909e-05 2.5787136e-07 5.164728e-06 0.0 0.0 0.0 0.0
1.5002856e-05 1.22577485e-05 3.5473553e-07 4.9558753e-06 5.406281e-07 5.416109e-07 1.5169643e-08 2.5837411e-07
1.8367919e-05 1.8691379e-05 4.1666922e-07 6.2357212e-06 1.8345719e-07 2.7490464e-07 3.48485e-09 8.304798e-08
4.810197e-07 1.9110112e-07 4.1252854e-09 1.1341038e-07 3.480468e-05 3.2383396e-05 8.425068e-07 1.386012e-05
1.4116098e-06 2.2479107e-06 4.882296e-08 1.0645949e-06 2.273031e-05 1.7596749e-05 4.5585355e-07 1.307301e-05
8.485396e-05 7.753961e-05 2.1415624e-06 3.100603e-05 2.8592443e-05 2.2882125e-05 6.7250414e-07 9.174288e-06
8.919526e-08 1.8180789e-07 1.2570576e-09 6.5519906e-08 1.2677661e-07 1.00369746e-07 3.2729743e-09 5.0926424e-08
8.216256e-06 7.1039776e-06 2.009062e-07 3.0366123e-06 3.3305096e-08 4.0044178e-08 4.909159e-10 1.4441243e-08
3.7574893e-05 6.712118e-05 1.8128941e-06 3.2343163e-05 8.1292103e-07 6.858797e-07 1.8287716e-08 3.0415202e-07
1.3619175e-06 1.0002444e-06 9.619246e-09 1.9569299e-07 4.0196184e-05 4.483535e-05 1.1888739e-06 1.8457415e-05
2.1110402e-05 2.2475157e-05 3.2335453e-07 6.6192865e-06 2.0384849e-05 1.3506504e-05 5.880163e-07 7.31432e-06
0.00017597218 0.0001519633 4.255217e-06 6.841842e-05 7.885423e-06 9.4913175e-06 4.0994274e-07 6.6478287e-06
3.8790563e-06 2.2752572e-06 9.172305e-08 1.1501462e-06 8.10716e-05 7.608959e-05 2.9074997e-06 5.0082876e-05
0.000103465565 9.6443204e-05 2.5963905e-06 4.1157607e-05 0.00016701319 8.910581e-05 3.8366397e-06 4.6605077e-05
1.200935e-05 7.878694e-06 3.5241806e-07 4.655257e-06 5.822466e-05 5.0929368e-05 1.093762e-06 1.8210818e-05
1.2870566e-05 1.2697555e-05 1.5630337e-07 3.995168e-06 1.648607e-06 5.043407e-06 5.541629e-08 2.4463075e-06
5.9472757e-05 0.00010696789 2.988252e-06 4.5820216e-05 4.054999e-06 3.6066017e-06 9.4933576e-08 1.5620308e-06
1.9436898e-06 1.7366466e-06 8.304021e-08 1.3003865e-06 1.7384171e-07 1.9047657e-07 6.714725e-09 9.2613504e-08
7.023579e-05 5.8672435e-05 1.6581902e-06 2.405274e-05 7.0273785e-08 8.4411674e-08 2.0043067e-09 3.1623344e-08
3.6430304e-08 8.070805e-08 2.7472156e-09 6.020385e-08 0.00020125037 0.0001824068 5.126739e-06 6.719763e-05
2.8011868e-07 5.726286e-07 6.5000467e-09 2.475994e-07 1.4025008e-05 1.5553873e-05 6.1975715e-07 1.1973716e-05
1.5188432e-05 1.9227251e-05 2.3934527e-07 5.991055e-06 1.0459711e-06 8.4915484e-07 2.3560867e-08 3.8250425e-07
4.8179932e-05 4.3749602e-05 1.192482e-06 1.9574869e-05 5.6339927e-06 4.896587e-06 1.4006034e-07 1.9979643e-06
7.952179e-07 7.2068855e-07 2.5953629e-08 3.6784152e-07 6.422243e-06 4.247879e-06 2.2044165e-07 3.0187525e-06
1.832492e-05 3.9159357e-05 6.705611e-07 1.75698e-05 9.5191215e-05 9.759074e-05 2.3840266e-06 4.0990482e-05
3.7167934e-05 3.9943312e-05 3.4350697e-07 9.377649e-06 9.896523e-06 8.8970155e-06 2.437357e-07 3.938251e-06
5.85577e-05 8.943844e-05 1.7915168e-06 3.4544795e-05 4.751244e-05 1.9742092e-05 6.718394e-07 1.0276928e-05
00000000: 9ce5 8d38 4470 8938 9fb2 e435 0555 e937
00000010: 18e1 4238 eee1 ec37 eb0f 9335 225a 5637
00000020: 7a34 e438 4651 cb38 e9ac 3836 aa75 2838
00000030: 22f3 0138 6cef 7137 62b7 0435 e636 3e37
00000040: d691 5c38 0d07 ef37 d22a b235 3f4c 6a37
00000050: 5878 7a39 7f6b 3739 1c60 9836 f03a b038
00000060: f857 6c38 b0b9 4a38 1ff9 b735 9651 bc37
00000070: f5a5 0d34 6f2e 2134 d7fc ef31 9cf3 0334
00000080: 0a0e a937 8c65 9c37 e746 0b35 cadb 0b37
00000090: b135 e537 27b8 9137 10c6 4b35 a521 6537
000000a0: 7e0f db36 0edf 5237 9271 8a34 ad4c ad36
000000b0: 0000 0000 0000 0000 0000 0000 0000 0000
000000c0: c7b4 7b37 a1a6 4d37 7b72 be34 a54a a636
000000d0: ae1f 1135 3863 1135 664e 8232 abb6 8a34
000000e0: ce14 9a37 6ecb 9c37 95b2 df34 703c d136
000000f0: 54fc 4434 9b96 9334 217a 6f31 1c58 b233
00000100: 6c1f 0135 7a31 4d34 65be 8d31 048c f333
00000110: 3efb 1138 68d3 0738 a028 6235 c388 6837
00000120: 8b76 bd35 d0da 1636 6ab1 5133 34e3 8e35
00000130: f8ac be37 bb9c 9337 09bc f434 2754 5b37
00000140: 9ff3 b138 c39c a238 c3b7 0f36 790c 0238
00000150: ced9 ef37 fdf2 bf37 2286 3435 44eb 1937
00000160: 9d8b bf33 f936 4334 c8c4 ac30 f3b3 8c33
00000170: 1720 0834 da8a d733 c6ea 6031 32ba 5a33
00000180: 8dd8 0937 b45e ee36 adb8 5734 9ac8 4b36
00000190: 570b 0f33 0afd 2b33 23f1 0630 4219 7832
000001a0: bc99 1d38 69c3 8c38 9152 f335 35a8 0738
000001b0: 8237 5a35 4b1d 3835 1d17 9d32 564a a334
000001c0: 21cb b635 2340 8635 e441 2532 ae1f 5234
000001d0: 5398 2838 970d 3c38 6591 9f35 ffd4 9a37
000001e0: 3e16 b137 0889 bc37 8299 ad34 3d1b de36
000001f0: 2100 ab37 fe99 6237 2cd8 1d35 886d f536
00000200: 2c85 3839 5658 1f39 09c8 8e36 dc7b 8f38
00000210: a24b 0437 e63c 1f37 1a16 dc34 6a10 df36
00000220: d728 8236 9fb0 1836 48f9 c433 b95e 9a35
00000230: fc04 aa38 4a92 9f38 771e 4336 1410 5238
00000240: a7fb d838 8d41 ca38 a63d 2e36 a5a0 2c38
00000250: 4320 2f39 51de ba38 7cbc 8036 d279 4338
00000260: c47b 4937 bc2e 0437 f833 bd34 5a34 9c36
00000270: 4136 7438 fe9c 5538 60cd 9235 6fc3 9837
00000280: a9ee 5737 9507 5537 58d4 2734 3b0e 8636
00000290: b545 dd35 893a a936 db02 6e33 3e2b 2436
000002a0: 6372 7938 f353 e038 c789 4836 152f 4038
000002b0: 2d10 8836 f208 7236 49de cb33 f8a6 d135
000002c0: 5670 0236 b916 e935 d753 b233 f188 ae35
000002d0: 3fa9 3a34 cd85 4c34 59b7 e631 d0e2 c633
000002e0: 8d4b 9338 0c17 7638 fb8e de35 dec4 c937
000002f0: 6ce9 9633 cf45 b533 23bc 0931 3cd2 0733
00000300: 8b77 1c33 b851 ad33 87c9 3c31 6b49 8133
00000310: bc06 5339 7444 3f39 5a06 ac36 74ec 8c38
00000320: 3863 9634 bdb6 1935 0457 df31 cded 8434
00000330: f34c 6b37 b079 8237 635d 2635 b8e2 4837
00000340: d2d1 7e37 354a a137 5d7f 8034 c506 c936
00000350: 4b63 8c35 7af1 6335 e562 ca32 fc5a cd34
00000360: cf14 4a38 c77f 3738 5f0d a035 b634 a437
00000370: a10b bd36 5d4d a436 7e63 1634 c414 0636
00000380: f576 5535 5775 4135 a2f0 de32 c17b c534
00000390: a67e d736 0189 8e36 8ab2 6c34 c695 4a36
000003a0: 77b8 9937 0a3f 2438 9c00 3435 dc62 9337
000003b0: 65a1 c738 a1a9 cc38 44fd 1f36 32ed 2b38
000003c0: c4e4 1b38 ce88 2738 3d6b b834 b254 1d37
000003d0: 3e09 2637 6444 1537 c8da 8234 5225 8436
000003e0: da9b 7538 e690 bb38 0c74 f035 31e4 1038
000003f0: 1848 4738 d29b a537 7458 3435 126b 2c37

exp_avg f4 [128]
0.0015915374 -0.002991037 0.0025620547 -0.001593608 -0.0039113476 0.002933078 -0.0013858225 -0.00020286713
0.0009125392 -0.0018141585 0.0006995949 0.0 -0.0010243943 -8.2598446e-05 0.00025434993 0.00013595224
-0.00014316027 -0.000998052 0.00013989008 -0.0011050841 -0.0009286105 -0.0018986373 0.000116038485 9.67987e-05
0.00062171347 -1.4621764e-06 -0.0009945268 0.00022725426 3.4996563e-05 -0.0004078717 -0.0014726005 -0.002819032
-0.002360828 0.0003009446 0.0007422549 0.00018723709 0.0029543298 -0.0049619507 0.0010493402 0.0025581366
-0.00048928533 -0.00018270219 0.0007200729 0.0004360304 5.9796548e-05 -5.8867823e-05 -0.002967358 -1.8641174e-05
5.35717e-05 -0.0002282391 -4.435296e-05 0.0015508556 -0.0015882506 0.0002765941 -0.0012092706 0.0005759962
-0.00013433729 0.0010025975 -0.0012501718 -0.00046077903 -0.00097527396 0.00064569205 0.001763139 0.0037375062
9.7783784e-05 0.0 8.7579793e-10 0.00060866633 -0.00090071495 -0.0015867064 0.002375342 -0.001982888
1.8609893e-05 -0.00044512257 -0.0007339816 -0.0011370275 -0.0023460833 0.0018095038 -0.0023752241 0.00023089585
-0.0022773433 -8.5416905e-05 -0.0011265647 7.506597e-05 0.00013244887 -0.0012098867 -0.0015919418 -0.001680542
0.0012460323 0.0010357008 -0.0010214065 0.00042727453 0.0011658671 -0.000792885 0.00079845206 0.0020674116
0.00070186023 0.00033011936 0.0010387788 0.00030935588 0.0009172492 -0.0005314167 0.00012717022 0.00019451222
-0.00057124655 0.000119599674 0.0007044655 -0.0040690075 2.203595e-05 -0.002745111 -1.0090998e-05 2.9460525e-05
-0.00080948294 0.0006990935 0.003426072 0.00054484163 -0.00011989379 -0.0018605376 -0.0009007459 2.159028e-08
0.00068420597 -0.0014243632 8.2764825e-05 -0.00013497745 -0.00074785226 1.0142177e-10 0.0002926044 -0.0009358447
00000000: 229b d03a 4605 44bb 25e8 273b 9ce0 d0ba
00000010: c32a 80bb e238 403b 7da4 b5ba bbb8 54b9
00000020: 7837 6f3a 0fc9 edba 0565 373a 0000 0000
00000030: f844 86ba b438 adb8 455a 8539 678e 0e39
00000040: 4b1d 16b9 11d1 82ba 75af 1239 78d8 90ba
00000050: ff6d 73ba b2db f8ba b059 f338 6800 cb38
00000060: 7cfa 223a 0040 c4b5 c85a 82ba 1a4b 6e39
00000070: 46c9 1238 9dd7 d5b9 4604 c1ba 82bf 38bb
00000080: 1fb8 1abb 1ac8 9d39 e293 423a 1355 4439
00000090: 6e9d 413b dc97 a2bb 048a 893a 69a6 273b
000000a0: 6243 00ba bf93 3fb9 46c3 3c3a 029b e439
000000b0: 0ece 7a38 d8e8 76b8 0278 42bb 9e5f 9cb7
000000c0: 2db2 6038 7853 6fb9 a107 3ab8 1446 cb3a
000000d0: d92c d0ba d503 9139 6380 9eba 73fe 163a
000000e0: e4dc 0cb9 9769 833a cedc a3ba b794 f1b9
000000f0: 87a9 7fba a943 293a 2119 e73a f3f0 743b
00000100: 4511 cd38 0000 0000 cdbc 7030 e88e 1f3a
00000110: f51d 6cba 08f9 cfba a0ab 1b3b 57f3 01bb
00000120: 711c 9c37 575f e9b9 ac68 40ba 5008 95ba
00000130: bfc0 19bb df2c ed3a a6a9 1bbb a21c 7239
00000140: 7b3f 15bb da21 b3b8 3da9 93ba bc6c 9d38
00000150: f9e1 0a39 1095 9eba b4a8 d0ba a245 dcba
00000160: e851 a33a 5ac0 873a b7e0 85ba d103 e039
00000170: 02d0 983a 9dd9 4fba 364f 513a 697d 073b
00000180: 0bfd 373a df13 ad39 a227 883a 0b31 a239
00000190: 8d73 703a c54e 0bba ff58 0539 faf5 4b39
000001a0: b5bf 15ba 96d1 fa38 e1ab 383a 4f55 85bb
000001b0: d8d9 b837 52e7 33bb 824c 29b7 ff21 f737
000001c0: 7b33 54ba 5f43 373a f387 603b b4d3 0e3a
000001d0: 7d6f fbb8 48dd f3ba 0920 6cba 8775 b932
000001e0: 495c 333a b3b1 baba 0792 ad38 bc88 0db9
000001f0: 840b 44ba 6107 df2e b368 9939 7a53 75ba

exp_avg_sq f4 [128]
0.00016092576 0.00010507151 0.00025324262 4.778733e-05 0.00011850608 0.00055204413 0.00013235034 7.4286663e-07
4.823491e-05 7.3813644e-05 3.709143e-05 0.0 3.3983626e-05 1.4625642e-06 4.644626e-05 3.5546063e-07
2.9409694e-07 7.9612655e-05 5.034713e-06 4.1779527e-05 0.00019379114 6.7022105e-05 1.4652393e-07 3.2322518e-07
1.8909886e-05 5.3832814e-08 0.00023643581 1.7253857e-06 7.9032947e-07 0.000119659686 3.5683544e-05 5.9296086e-05
0.00040342016 4.7938163e-05 8.9013365e-06 0.00036578265 0.00025454833 0.0003230594 3.323742e-05 0.00012007995
1.587418e-05 5.4474467e-06 0.0002979656 8.96806e-06 9.778967e-06 6.799848e-07 0.00015803285 1.2446459e-07
2.568161e-07 0.00040772374 8.1913106e-07 6.799162e-05 3.2545537e-05 2.2372503e-06 0.00011102724 1.2957911e-05
2.5224278e-06 2.2078159e-05 8.779863e-05 0.00024926086 3.2941283e-05 2.2675127e-05 0.00021821113 5.9079677e-05
3.8966135e-07 0.0 1.2281509e-09 2.8399763e-06 6.015823e-06 6.086791e-06 0.00013617224 4.769286e-05
9.052193e-07 2.3973978e-05 1.8294519e-05 2.4611825e-05 0.00018414375 0.00020672618 0.00019907362 7.964298e-07
0.00010696403 1.5776259e-05 2.0049094e-05 2.8874388e-07 8.2796686e-07 7.154708e-05 0.00018570901 0.00021713343
0.00029911427 6.145063e-05 6.956096e-05 7.498542e-05 3.5839326e-05 4.3967706e-05 3.230431e-05 2.1448064e-05
3.0076297e-05 5.2229607e-05 5.9638216e-05 4.920254e-06 4.3026146e-05 1.2783623e-05 3.3382886e-07 8.172175e-07
3.146025e-05 1.8419466e-07 2.9277848e-05 0.0001433782 1.4842783e-06 0.00035689794 2.2270537e-07 1.6450652e-07
4.8611228e-06 2.9261337e-05 0.000484 1.583913e-05 1.1508974e-05 2.9106286e-05 7.7455925e-06 3.121677e-07
9.858182e-06 0.00019935529 2.9319476e-06 8.412621e-06 1.2466169e-06 2.5318034e-09 2.6545924e-06 0.0002241323
00000000: 2ebe 2839 d659 dc38 a6c5 8439 416f 4838
00000010: 7886 f838 0eb7 103a 86c7 0a39 6869 4735
00000020: d74f 4a38 66cc 9a38 9f92 1b38 0000 0000
00000030: a489 0e38 534d c435 4bcf 4238 23d6 be34
00000040: 60e4 9d34 b8f5 a638 dbef a836 6d3c 2f38
00000050: 6a34 4b39 388e 8c38 3154 1d34 bb87 ad34
00000060: aca0 9e37 ce35 6733 c1eb 7739 cd93 e735
00000070: 0727 5435 cef1 fa38 eaaa 1538 b0b4 7838
00000080: 2382 d339 3611 4938 f356 1537 84c6 bf39
00000090: e674 8539 4c60 a939 6868 0b38 6fd3 fb38
000000a0: 8b29 8537 36c9 b636 4438 9c39 8675 1637
000000b0: 5810 2437 3388 3635 9fb5 2539 91a4 0534
000000c0: 89e0 8934 c1c3 d539 42e2 5b35 b996 8e38
000000d0: 8181 0838 ab23 1636 4cd7 e838 ce65 5937
000000e0: fb46 2936 7c34 b937 8820 b838 3aaf 8239
000000f0: 6f2a 0a38 7736 be37 9bcf 6439 52cc 7738
00000100: a632 d134 0000 0000 b8cb a830 6c96 3e36
00000110: 87db c936 233d cc36 75c9 0e39 d209 4838
00000120: 32fe 7235 ba1b c937 2e77 9937 7e75 ce37
00000130: b616 4139 a3c4 5839 6bbe 5039 3dca 5535
00000140: e051 e038 4257 8437 1a2f a837 a804 9b34
00000150: 7341 5e35 8c0b 9638 e2ba 4239 50ae 6339
00000160: 70d2 9c39 0edf 8038 42e1 9138 7e41 9d38
00000170: 2f52 1638 f769 3838 7d7e 0738 5eeb b337
00000180: 5b4c fc37 1d11 5b38 0c24 7a38 a918 a536
00000190: f976 3438 3e79 5637 1739 b334 c25e 5b35
000001a0: 30f4 0338 0bc7 4534 b399 f537 cb57 1639
000001b0: 6a37 c735 081e bb39 c920 6f34 35a3 3034
000001c0: ba1c a336 3e76 f537 61c1 fd39 46de 8437
000001d0: ab16 4137 4629 f437 11f3 0137 0198 a734
000001e0: 9264 2537 070a 5139 7ac2 4436 ef23 0d37
000001f0: 6e51 a735 f5fb 2d31 8d25 3236 0e05 6b39
